models_airl/2022-06-07_17-20/step_12288_reward_1/disc.pt (torch, 53851 bytes, 10 tensors)

g.0.weight f4 [64, 36]
00000000: 277c a73d 2edc a1bd ce46 14bd 3538 983d
00000010: da3e 22be fc4a c63d 2b5f 1fbd b16b a43d
00000020: ff3c 9c3c 8819 bfbc 9369 263d 65d2 cf3b
00000030: 4040 653d 9683 8ebd 9802 5ebc 2244 a6bc
00000040: e848 ab3c 842e 3bbb b14f 113e 6339 3f3d
00000050: 5b27 89bd 1622 d4bd e9d3 05bd a614 97bd
00000060: 7c76 66bd 6d93 6c3b 38d9 c13d 08d3 b13d
00000070: 9407 2cbe 0b61 c83d 48a8 303d 8953 1c3e
00000080: af0e d93d b3c9 20be 548e 27be 4d5f aebd
00000090: 625b 1e3e 0bde 8fbc 3f9c a03d f2d8 81bd
000000a0: b357 2f3e eb4d 81bd c69f 083e 86ed 663c
000000b0: d5d5 a2bd e554 c43d e9e4 9fbd 1a7e 613d
000000c0: cc3d 04bd 4e93 70bc 5243 15be c508 87bd
000000d0: 0daa c83d 209f c4bc a5c7 323e 4a4c 143e
000000e0: a6ac 033c a01f d8bd 2cc5 e33d 6a96 6c3d
000000f0: 3246 cebd 1d3e f53d 1e64 e13d d995 213e
00000100: 97ca afbd f20c 9ebc e724 0a3c e6c1 f73c
00000110: 20cd f2bd 177a dcbd d4c8 cd3d a79e 05bd
00000120: a546 b43d 54cd 963c b6b2 903d 0545 553d
00000130: 3a07 753d 6719 b73d a5ec 0ebe 6659 cf3d
00000140: a974 e2bd 9e82 dfbd 531e dd3c bdd3 fbbc
00000150: d5b3 e33d a1b5 adbd 06ae 09be 7ffe 0c3e
00000160: 8bb3 08bc 37ab c13d 4e9d 653d 3d1b dcbd
00000170: e19a 3f3d 5eb1 583d f9f9 c1bd 89be a6bd
00000180: ff74 7b3d bf78 363d baaf 8fbd a3ad 0fbd
00000190: d65b 283e 6320 93bc ad45 db3d e743 ad3d
000001a0: 862b cfbd a391 01be 9b59 2f3e 5c2b ba3c
000001b0: 0ec4 013e 32c9 543d d5c0 913d a841 ee3d
000001c0: cd4a 333e 201a d2bd 3130 233d 44f2 f33d
000001d0: fc6a 083e d3ad d63d 5b6a d5bd f6de d6bd
000001e0: 3711 d7bd ff1b 103d dae1 3e3e 284b c3bd
000001f0: aff3 c03d 440f b5bd e4a9 0cbe 7ac8 f3bc
00000200: 1f07 bc3d 68f8 313e b920 c3bd dffe 513d
00000210: 2013 253e 0511 e93d 44e4 f33d e400 ec3d
00000220: 7bba e83d 3129 6e3d 607b d7bd 88d1 01be
00000230: 6f48 8ebd fdfa 18bb b7a4 e3bd 0c81 9e3d
00000240: 452e 293d 9e80 40bd 7167 583d a11d 313d
00000250: fb40 b93d f938 d33d 75da 88bd d076 1c3e
00000260: 1d09 f2bc 5e78 86bc 2f44 2abe 324f ecbd
00000270: d915 dabd f010 a6bd fadd da3d 60b0 82bd
00000280: 189d 06be c939 823d 0c8d 2d3d 44d6 c83d
00000290: c64e c3bd 4886 d23c 33a5 91bd 119f 3abd
000002a0: 00b2 13be d52f afbd 590e 77bd d4eb 763d
000002b0: 84ae ac3c 0bcf fe3c b8bc 1e3e 025b 1d3e
000002c0: 6fc0 d53d a899 90bb 08dd fcbd 80e8 f43d
000002d0: df26 adbc e2a1 e23a 93eb 03be fd57 eabc
000002e0: a908 b5bd e191 2a3e 4b1f 03be 0565 ebbd
000002f0: 08d0 733c 8b00 8ebd 883f 913d d6bb 3ebd
00000300: 3847 87bd aba8 e33c 64fe 0d3e 2c3c fdbd
00000310: 939e bb3d ad79 e53d b34a 3b3e 926f e4bd
00000320: 2b6b 573d 0e93 d9bd 2d03 243e c2c4 40bd
00000330: 4868 e73d ddd4 8c3c 29b8 9a3b 2b4f 353c
00000340: 32c3 393d 3fad b83d 4fb9 303d 890e 863d
00000350: 07f4 0dbe 0b12 063e f42a 283e 9fb4 1f3e
00000360: 0f71 113e e0b5 d3bd 50f0 44bd 72b3 293e
00000370: ef62 debd fc59 2b3e 4530 e9bd 7ee2 c9bd
00000380: a86e cd3d 27f2 d1bd 0f1b a6bc f784 0f3e
00000390: 7a59 193e 797d 333e e773 70bc b20f e9bd
000003a0: 02e0 3a3e 77f9 c7bc e443 49bd a576 6e3d
000003b0: bf5e cabd 5529 033e 5a8d fc3d c41e e8bd
000003c0: 2276 edbd d8e9 9939 5fab b13d 244d 5d3c
000003d0: 9f13 8cbd ea5b a33c f32a 0bbe 50b8 d2bd
000003e0: f3f6 c3bd 4211 203e 77fb 253e 6480 27bd
000003f0: 4074 e13c e3a0 c03d 66d3 273d 1a8a 81bd
0.08177977 -0.07903324 -0.036200337 0.07432596 -0.15844288 0.09682271 -0.03890912 0.08028353
0.019072054 -0.023327604 0.040628027 0.0063422197 0.055969477 -0.06958692 -0.013550423 -0.02029616
0.020908788 -0.002856166 0.14190556 0.046685588 -0.066969596 -0.10358064 -0.032672796 -0.07376985
-0.05626534 0.0036098615 0.09465259 0.08682829 -0.16799766 0.097841345 0.043129236 0.15266241
0.10598504 -0.15701942 -0.16362888 -0.08514271 0.15464547 -0.017561933 0.078423016 -0.06340207
0.17123298 -0.0631369 0.13342199 0.014094716 -0.079509415 0.09586505 -0.07807333 0.0550519
-0.032285497 -0.014683558 -0.14576462 -0.065934695 0.097980596 -0.024001658 0.17458971 0.14482227
0.008036768 -0.10552907 0.11121592 0.057760634 -0.100719824 0.11974738 0.11005424 0.15779819
-0.08583563 -0.019293282 0.00843165 0.030243825 -0.11855531 -0.10765474 0.100480705 -0.032622006
0.08802537 0.018408455 0.070653364 0.052067775 0.059821345 0.08940392 -0.1395746 0.10124473
-0.110574074 -0.10913585 0.026991999 -0.030740613 0.111182846 -0.084819086 -0.13445291 0.13768958
-0.008343588 0.09456485 0.05605822 -0.10747383 0.046778563 0.052903526 -0.094715066 -0.081418104
0.061390873 0.044548746 -0.07015939 -0.035077702 0.16441283 -0.01795978 0.10706649 0.08460217
-0.10115723 -0.12653212 0.17124026 0.022725753 0.12672445 0.051949687 0.07116858 0.11633617
0.17509003 -0.10258889 0.03984088 0.11911443 0.13322061 0.10482373 -0.10420676 -0.10491745
-0.1050133 0.03518295 0.18640843 -0.09535819 0.09421479 -0.08840802 -0.13736683 -0.02975868
0.09181046 0.17379916 -0.09527726 0.051268455 0.16120577 0.11380199 0.119087726 0.115236074
0.11363693 0.058144752 -0.10521579 -0.12677586 -0.06947409 -0.002334296 -0.11115401 0.077394575
0.04130389 -0.04699766 0.052833024 0.043241147 0.09045597 0.10313601 -0.06682292 0.15279698
-0.029545361 -0.016414817 -0.16627572 -0.11538543 -0.10648698 -0.08108699 0.1068687 -0.06381297
-0.13145864 0.06358678 0.04237084 0.09806493 -0.09536509 0.025698796 -0.071115874 -0.045561854
-0.1442337 -0.08554045 -0.060316417 0.060283497 0.02107931 0.031104585 0.15501678 0.15366748
0.104370944 -0.0044128485 -0.12346846 0.11958408 -0.0211367 0.0017290676 -0.12882833 -0.02860641
-0.088395424 0.16657211 -0.12804906 -0.11493877 0.0148811415 -0.06933697 0.07092196 -0.046565853
-0.06605381 0.027790388 0.13866574 -0.123649925 0.09161105 0.112048484 0.18290214 -0.11154093
0.052592438 -0.106237516 0.16016836 -0.047062643 0.11299187 0.017191345 0.0047216606 0.011066238
0.04535217 0.09017419 0.043145474 0.06545741 -0.1386262 0.1309282 0.16422635 0.15596245
0.14203285 -0.10337424 -0.048080742 0.16572359 -0.10858714 0.16733545 -0.1138616 -0.09857653
0.10030872 -0.10251265 -0.020276574 0.14015566 0.14975539 0.17528333 -0.014676071 -0.11379947
0.18249515 -0.024410946 -0.04913701 0.058218617 -0.09881353 0.12808736 0.12331648 -0.11333993
-0.11594798 0.0002935666 0.086752646 0.013507161 -0.0683968 0.019941289 -0.13590603 -0.10289061
-0.09568586 0.15631583 0.16209207 -0.040893927 0.027521253 0.09405687 0.04097309 -0.06325169

g.0.bias f4 [64]
00000000: 5852 abbc 477c ae3d e106 083e 5f8a b13c
00000010: 5a0c cebd d99b e2bd 3d2a dbbd c573 1e3e
00000020: 7f6f 21be 8df2 34bd 10f4 9f3d a619 e53d
00000030: b7d9 22be 56a5 4e3d 8b6e ad3c 0f51 333e
00000040: 9eda c03a 7cd5 ba3d c15b f63b fbd6 0d3e
00000050: fb3b d2bc db83 9fbd 7715 513d e5f7 b9bd
00000060: 6744 7b3d 589a d03d bbb0 fdbd b836 cfbd
00000070: c076 c73c 6b61 c9bc a534 84bd 7f14 233e
00000080: 06b7 c43d 2319 13bd 580b 2d3d 338a 89bb
00000090: b170 f6bd 041d b23d 4ad4 b7bd 0bae 003d
000000a0: e08a 093e a249 23be 1d12 4a3c dfa0 333e
000000b0: 0177 8b3d 09f9 36bd 418b 453d 8e61 0abe
000000c0: b892 403d 4a56 2a3e 1ccc 053e ea8f 6e3b
000000d0: da23 633d 0210 27bd 3265 c9bc b912 cb3c
000000e0: 8724 dfbd 07de b53d c6c0 d13d 0fec e6bc
000000f0: 8a4f b6bc 838a cabd 46b8 ed3c f748 b43d
-0.020913288 0.08519798 0.13283874 0.021672426 -0.100609496 -0.11064882 -0.10701416 0.1547385
-0.15765189 -0.044176627 0.07810223 0.11186533 -0.15903364 0.050450645 0.021170875 0.1751139
0.001471359 0.0912275 0.007518262 0.1385154 -0.025663367 -0.07788821 0.05104586 -0.09080485
0.06134453 0.10185689 -0.12387224 -0.10117859 0.024348617 -0.024582585 -0.06455354 0.15925787
0.096052215 -0.035912644 0.042247146 -0.004197383 -0.12033213 0.086969405 -0.08976038 0.03141598
0.13431883 -0.15946057 0.01233342 0.17541836 0.068098076 -0.044671092 0.048228506 -0.13513777
0.047014922 0.16634479 0.13066143 0.0036401697 0.055454113 -0.04078675 -0.024584386 0.024789201
-0.10895639 0.08880239 0.10241847 -0.028188733 -0.022254724 -0.098897 0.029018532 0.088029794

g.2.weight f4 [64, 64]
00000000: c455 0d3e 309e c5bd d967 a9bd cc80 cd3c
00000010: 2bf6 0a3e 3e16 f93c d45e 5c3d 9c0f 233d
00000020: e73b 003b 7532 e23d e05c e43d ac7c 4cbd
00000030: 3303 5ebd d982 98bd e9a9 3ebc e3f5 a13c
00000040: 873d 013e 4978 cabd 8076 e13d 6105 45bd
00000050: 5687 fb3c 857b 6e3c 3174 be3d 2273 b4bd
00000060: 9621 86bd 83d8 bc3c 283a aa3d 05f8 19bd
00000070: 28dc 793d 1cd7 75bc 5692 c3bd 8cac 153d
00000080: 4d28 8cbb 57b1 c23d 2bc9 d33d 7aa9 d43d
00000090: dcb4 c43d 3345 9abd 3cfe c8bd 65fe 133d
000000a0: 2e20 6c3d 37a6 afbd 6d2b fb3d 75ac 1b3c
000000b0: 76fa 54bd 73e5 db3d dddb 053e 931a 2b3d
000000c0: d742 91bc c297 133d 50ea 8fbd 4521 c73d
000000d0: 150a ca3d bed3 b1bb 0081 9dbd 0bba eb3d
000000e0: 467d adbd 198c 2fbd 6144 c63d 75f4 1fbd
000000f0: 5ec1 3a3d 5733 fe3d 281a e63b 90c9 b9bb
00000100: 0ce8 053e 9af7 2d3d ca35 803d b6e2 a7bc
00000110: 6a91 b8bd 6f43 133d 2cbe 68bd 0cff 33bd
00000120: ac4d b4bd 6b0d 003e 9503 87bd c2b5 653d
00000130: cc95 3b3d 7ad8 dc3d c40f a83d e8ac 8bbd
00000140: b097 9c3d 8f1d 2dbd 80d0 b63c 455d ccbc
00000150: f2ed b3bd 2fa5 483d 9364 7dbd 5e13 033e
00000160: 69d6 923d eb50 bebc 88d5 70bd fd67 c2bd
00000170: 850a 3dbd 30a8 82bd 1ea0 043d c02a 4d3d
00000180: 2c25 053e 4728 193d da07 f4bb a0b1 0dbd
00000190: 8d09 7cbb a959 b13d 909d d0bd 072e c6bd
000001a0: 88ee 8a3d 64e2 19bd a976 8fbc 4afd 71bd
000001b0: 7ca4 7fbd 56e7 93bd 4d84 6fbd 4dea cabd
000001c0: 92a3 1fbd c51f f93d 5725 54bd 20eb e83d
000001d0: 5f11 b2bd 387c d53c b478 2c3c 7094 97bd
000001e0: c727 a53c a9ac ff3d fadb 15bd e513 063e
000001f0: e6d6 263b f233 acbc 8fc5 a83d ae8f f23d
00000200: 5396 d03d d3bc 893d ec7d edbd 3fb6 fdbc
00000210: e575 253c e463 7fbd de88 643d 9a59 0ebd
00000220: db0c e2bd d3e8 78bd 6e38 afbd 4c44 2b3d
00000230: 08ed c4bd 6d28 18bd 047a 263c fd85 533d
00000240: 745b cfbd 0341 a23d 3852 aebd 36a1 d0bd
00000250: ec37 353d 836f 9ebd 745e ab3d e426 513d
00000260: dd20 86bd 714a 05bd 5ecc 7abd d66a 8cbc
00000270: a732 adbb 109f 03bc d7aa b3bd f5bd e2bd
00000280: 1852 b0bd 85ca 763c 9120 be3b 5c12 90bd
00000290: 1742 b6bc a10b 0ebc 18ef aa3d 8da4 f2bd
000002a0: efed 79bd a1cf 8cbc 4fbd cdbc 1dd4 93bd
000002b0: 880b 643d c783 57bd 82c7 123c 5ca3 97bd
000002c0: 8f0e f23d 8a37 a4bd 625d 06bd 6931 c43d
000002d0: 33af 7b3d ecd8 e9bd c9c4 983d 4d57 96bd
000002e0: db0a 98bc e3c2 343d 9342 023b 1c7a b73d
000002f0: ccde 4abd a0ce c0bd 54ed 013b 3575 233d
00000300: d4c4 b23d f1b8 90bd 01c3 bbbc 2aca 9dbd
00000310: d759 c2bd 8d1c d4bd 1edc b1bd 99ba a9bd
00000320: 044c 1a3d 6018 b0bc 6196 973d 4602 b63d
00000330: e387 d2bd 69f9 823c cfbe 7a3d 3114 dbbd
00000340: 11d7 36bd d732 a83d 2b76 c9bd a29a da3d
00000350: b267 503b 1a39 993c c98f c43d 5b9d efbd
00000360: 5dff c83d ad42 f1bd d5e9 683d 2c2b 4dbc
00000370: b376 ba3d f814 15bc 132e 03be 0ba4 173c
00000380: 55c7 983d a600 fabc a0f0 febd 03d1 d6bc
00000390: be7c 5e3c 24de bb3c 8d3e 083d d78c b5bc
000003a0: d809 4dbc 0291 d2bc a49b 2a3d 25f7 a03c
000003b0: 9871 313d a8d5 94bc ba5f 94bc 4c7f af3d
000003c0: 513b 013c 6c09 fabd 0b74 953c 48d1 e53d
000003d0: ce55 f7bc 34dc 8f3d c4f2 c6bd fbfc dabc
000003e0: 63fa a53d 26ce 8dbd 3f2d 19bd 9c87 46bb
000003f0: 594c c1bc a6d5 20bd 561f a13d 355a efbc
0.13802248 -0.096493125 -0.082717605 0.02508583 0.13570468 0.030406114 0.053801373 0.039809808
0.0019566955 0.1104478 0.11150527 -0.049923584 -0.05420227 -0.07446832 -0.011637189 0.019770568
0.12621127 -0.09886224 0.1100893 -0.048100833 0.030704182 0.014555817 0.092995055 -0.08811022
-0.06549375 0.02305246 0.08311874 -0.037590045 0.061000973 -0.015004899 -0.09549396 0.036541507
-0.004277265 0.09506481 0.10341104 0.103838876 0.09604809 -0.0753273 -0.09814116 0.03613128
0.057647876 -0.08576625 0.12264142 0.009501566 -0.05199667 0.10737123 0.13072152 0.04177339
-0.017732067 0.0360334 -0.070271134 0.097231425 0.09865204 -0.005426853 -0.076906204 0.11510094
-0.0847116 -0.042858217 0.09681011 -0.03905149 0.045594566 0.12412136 0.007022161 -0.00566978
0.130768 0.04247246 0.062602594 -0.020493846 -0.090121105 0.03595298 -0.056821987 -0.043944404
-0.08803877 0.12505119 -0.0659248 0.05608154 0.045797154 0.10783477 0.08206132 -0.068200886
0.076461196 -0.042264517 0.022316217 -0.024946818 -0.08785619 0.048985656 -0.061863493 0.12800357
0.07169802 -0.023231944 -0.05879739 -0.094924904 -0.04615261 -0.063797355 0.032379262 0.050089598
0.13002461 0.037391927 -0.007447225 -0.034593225 -0.003845784 0.086596794 -0.10186303 -0.09676748
0.067837775 -0.03756942 -0.017512636 -0.059079446 -0.062412724 -0.07221858 -0.05847578 -0.099079706
-0.038974352 0.12164263 -0.051793423 0.113729715 -0.086947195 0.026060209 0.010526825 -0.07401359
0.020160569 0.12484104 -0.03658674 0.13093527 0.002545768 -0.021020863 0.08240806 0.11843811
0.10184922 0.067254685 -0.11596283 -0.03097069 0.010098909 -0.062351122 0.05579459 -0.03475342
-0.11037608 -0.060768913 -0.08555685 0.04181318 -0.096155226 -0.037147928 0.010160927 0.051641453
-0.10124865 0.07922556 -0.08511776 -0.101869985 0.044242784 -0.07736113 0.08367625 0.05106248
-0.06549237 -0.032541696 -0.061230056 -0.017140787 -0.0052855792 -0.008033529 -0.087728195 -0.11071388
-0.08609408 0.015062933 0.005802222 -0.07034752 -0.022248311 -0.008669765 0.08346385 -0.11847792
-0.061017927 -0.017188849 -0.025114683 -0.07218192 0.05567506 -0.052615907 0.008958699 -0.07404205
0.11819183 -0.08018406 -0.0328039 0.09579737 0.06144638 -0.11418328 0.07459409 -0.0734087
-0.018559864 0.04413117 0.0019876107 0.089588374 -0.049528882 -0.094144106 0.0019825296 0.0399067
0.08728948 -0.07066525 -0.022920134 -0.07704575 -0.09489792 -0.10357008 -0.08684562 -0.08287544
0.03767015 -0.021495998 0.074017294 0.088871524 -0.102798246 0.015988069 0.061217126 -0.106972106
-0.044638697 0.08212822 -0.09836992 0.10674025 0.0031800088 0.018703986 0.09597737 -0.11699935
0.09814332 -0.117802955 0.056863625 -0.0125225 0.09104671 -0.009099238 -0.12810545 0.0092554195
0.074598946 -0.030517887 -0.12448239 -0.026222711 0.013579546 0.022933073 0.033262778 -0.022161884
-0.012514554 -0.02570391 0.041652337 0.019649098 0.043321222 -0.018168285 -0.018112052 0.08569202
0.007887677 -0.12208828 0.01824381 0.11221558 -0.030192282 0.07024422 -0.097142726 -0.026731959
0.08104398 -0.06924085 -0.037396666 -0.0030293232 -0.023595976 -0.03926625 0.07867305 -0.029217819

g.2.bias f4 [64]
00000000: e9cd 0abc 51f1 8abc f3f3 6cbd e3f8 ecbd
00000010: 9c44 72bd fdca 393b f466 dcbd 7b0a dabd
00000020: 4625 bb3d d92e d23d 3115 a0bd 647f b5bd
00000030: 0482 0b3d c921 543d 6427 bcbd 6c24 edbb
00000040: 7f65 93bd 4738 82bc 60f2 afbd 20f8 e5bc
00000050: 6d29 4b3c 3010 5bbd 69a1 fd3d b29e 05bd
00000060: 916d 4d3d dbce fa3b 25c6 85bd f55f b33d
00000070: ad71 143c a1f2 0fbd 4e1a 8fbc 9eac d4bd
00000080: 527c f6bc be06 b43c 621f 983d eb7d 8fbd
00000090: e2bb c2bd a278 9bbd b94a 29bd 83f8 bb3c
000000a0: 5ac0 61bd 1f71 023e bc11 60bd 4825 1ebd
000000b0: 14c5 abbd 01cb f23d 3b7d 973d e8aa bebd
000000c0: 9fb4 1b3c bfeb 453d b86d 483d 00d2 a6bd
000000d0: e1ba bbbb dc47 323b 6435 dcbd e287 f0bd
000000e0: 5453 ea3c 9265 a7bd d0da cc3c d428 14bc
000000f0: 9aa8 0abc ba74 ebb9 131b 073c 6399 39bd
-0.008471944 -0.016960772 -0.057849836 -0.11570909 -0.059147462 0.002834975 -0.10761824 -0.1064653
0.09137969 0.10262842 -0.07816542 -0.088621885 0.03405954 0.051790033 -0.09187201 -0.007237008
-0.07197093 -0.015895976 -0.08591151 -0.028072417 0.012400013 -0.053482234 0.12384302 -0.032622047
0.05015332 0.0076540536 -0.06531934 0.08758537 0.009060306 -0.0351435 -0.017468598 -0.103844866
-0.030088577 0.021975871 0.07427861 -0.07006439 -0.09508492 -0.07591368 -0.041331027 0.022945648
-0.05511508 0.12738465 -0.054704413 -0.038609773 -0.08387199 0.11855126 0.07396933 -0.093099415
0.009503513 0.048320528 0.04893276 -0.08145523 -0.005729065 0.0027203476 -0.10752371 -0.117446676
0.028604187 -0.0817367 0.025006682 -0.009042937 -0.008463049 -0.0004490966 0.008246201 -0.045312297

g.4.weight f4 [1, 64]
00000000: f118 25bd 0e30 50bd 5a19 df3b df63 de3d
00000010: 8cbb a53d 8ebe 2abd 0b35 a03d d94e 563d
00000020: f31a 653d d16f 43bd df93 bbbd 3f19 833d
00000030: ea97 ff3c 8043 0abe f18a 433d 39b7 67bd
00000040: fe54 1ebd 1708 603c b04f 763d 6d3f c33c
00000050: 0073 bdbd d778 6abd 275c 05bd f0b3 b13d
00000060: bd30 c63c 1301 e23d c82a 9e3d 9284 7bbd
00000070: 63c6 68bd aae6 7bbd cded d73d ed89 abbb
00000080: 07e2 de3d b486 543d 3603 833d 38a5 3c3d
00000090: 75d5 a7bd 93d6 133d f587 9fbd 7424 bebd
000000a0: 938d c63d c62f f4bd 55ce 523d 2a70 663d
000000b0: 5646 1dbd e5a3 babc e649 003d 4040 20bd
000000c0: 8725 08be d8a1 923d 1765 833c 5a34 233d
000000d0: 90b4 7a3d cffc 933d dcc2 b93c 50ae b0bd
000000e0: 27bc e53d 4b01 eebd ed7f fc3b 73f8 76bd
000000f0: 2bea b43d 7fde 803d 43af 9ebd 01f9 c23d
-0.04030699 -0.05082708 0.006808442 0.10858893 0.08092412 -0.041685633 0.07822617 0.05232129
0.055933904 -0.04771406 -0.091590635 0.064013 0.031200368 -0.13502312 0.047739927 -0.05657122
-0.038655274 0.013673804 0.06013459 0.023833955 -0.0925045 -0.057244148 -0.032558586 0.086768985
0.024193162 0.11035361 0.077230036 -0.061405726 -0.05682982 -0.061499275 0.10543404 -0.005234948
0.10882955 0.051886275 0.06397097 0.046056002 -0.081950106 0.036093306 -0.077896036 -0.09284297
0.09694972 -0.119231746 0.051466305 0.05625931 -0.038397156 -0.02278323 0.031320475 -0.039123774
-0.13295566 0.071597755 0.016039414 0.03984485 0.061207354 0.07225954 0.022675924 -0.086269975
0.11217528 -0.1162134 0.0077056796 -0.060295533 0.088337265 0.06292438 -0.07748272 0.0952015

h.0.weight f4 [64, 24]
00000000: b83c 4bbe 5ada e43d 748d 35bd d767 09be
00000010: 039c 4a3e c0a5 4a3e 9e78 2bbb 99bc 35be
00000020: 3f40 65ba 4c6a cb3d 8f4a 103d 5814 4fbe
00000030: eb54 3b3e d018 b13c e6ff 3cbd 12ce 38be
00000040: 213a ce3d ef2c b63d aae6 013e 504d 013e
00000050: 3517 443d 7433 19be b4c5 16be 8f3f 403e
00000060: 4c59 c53d f1b3 28be 81b1 f8bd cce6 3b3e
00000070: 15bf a5bd 3d6d 813d f1ee dabc f3c6 c93d
00000080: 71a0 f9bc d1ae 993d 2b89 d1bd ad2e 243e
00000090: 3afd a3bd 1fa0 3dbe fa90 893d dee2 b93d
000000a0: a296 cfbd 596f 85bd e801 3c3e 7f6a 9ebc
000000b0: 704f 053e 616d 523e 982b e63d dd51 113e
000000c0: 15ba 0abe cad2 dbbd 9001 17bd bd47 1bbd
000000d0: d391 893b 91e5 f93d 411d 48be 1c54 153e
000000e0: f5e6 4a3e 5dc5 143e b42e 273e bbfd 3c3e
000000f0: 7b37 cbbc 6ce5 3bbd e9f8 29be 8c51 273e
00000100: dcb7 713d 9744 2dba aed8 c6bd be2d 3a3d
00000110: cb4a f4bd 26ec 39be b38d 5ebd a90a 8d3d
00000120: fc38 31be 6c33 443e 3a0b 833d d93d ccbd
00000130: 6a70 9a3c c33e 97bd 08a9 1d3e 2e45 24be
00000140: df59 333e 44d0 c8bd 203e 3c3e d82b 06be
00000150: d31b 20be 987c abbd 9ef3 91bb e30b 8fbd
00000160: aaea 39be 0f3d 32be 62bb 493e ccfb 3ebe
00000170: 8a6e 1b3d 9b80 37be f048 4a3e 583d 05be
00000180: b6ae 3f3e 0a15 213e 6962 2fbe c646 a7bd
00000190: bb7f a1bd f61d ed3d b0e3 0ebd de4e de3c
000001a0: f28f c3bd 796e 30bd fcba 153e b15d 25be
000001b0: de8a 9e3c 66e8 c43d cf42 cabc 7145 6a3d
000001c0: cee8 b0bd 90af cdbd dc88 1f3e 0cb9 dbbb
000001d0: 51ef da3d 9be5 13be edb5 55be 7477 a8bd
000001e0: 510a 533e 0662 293e 1f48 423e a994 3cbe
000001f0: 3c5a 153e 86f7 01be e6ac 1f3e ed11 cebc
00000200: 35ca 4f3e 0a0e d6bd 056d e9bd 4104 8bbd
00000210: 5a9f bf3c 8318 febb 4ca5 263e 8559 233e
00000220: b61b 17bd 341b 823d 5c3b e93d 11ce b63d
00000230: 2809 a43b cb9b cdbd 5323 1e3e 1ad9 563e
00000240: 3a57 b6bd a315 433e 5e96 c83a 5790 273d
00000250: 48db 9dbc 4e96 123b 6a54 363d 04d1 bcbd
00000260: 3fdd 9e3d 6fc5 d83d 7749 313e 061c 103e
00000270: bd9e 80bd 460d 3cbe a5ed 473d 343e 7bbc
00000280: b80d 453e 1021 393e 640d 333e f05a 523e
00000290: c6e8 713d 7ff4 363d 7015 0abe 417c 10bc
000002a0: 3414 493d 7c7e 53be 941a d93d 1b1f cb3d
000002b0: 00ee 30be 2c66 1b3d fcc4 bf3d 002a 353e
000002c0: d57b 463d 4538 c0bd a072 fc3d ae56 1abe
000002d0: 6ecc d8bd 8adf 163d fd99 d3bd 526f e23d
000002e0: 4ca0 ad3d ea8b a6bd a826 47be ef95 3bbe
000002f0: 12a6 c83b 2a6e e23b ebb8 8e3c 5fef 31be
00000300: 52c4 b83d 3170 26be 11e9 4d3d bc0b 15bd
00000310: 5772 d3bd 0537 abbd 864b 1abd d751 1ebd
00000320: 97d7 c3bd e1ca 32be 7425 00be 542c a93d
00000330: db52 0c3e 1e71 18be ad35 01be cb11 94bd
00000340: 5445 77bd 2d6d 093c c91c 9c3d 8b56 163e
00000350: d994 a1bc 180b 09be b4c2 09be 28f4 6f3d
00000360: a418 523d e516 9abd d6c4 923c 0487 3b3e
00000370: 0c80 4e3e 3445 f8bc b878 253e 544b 6f3c
00000380: 43e8 02be feb4 6b3d d96e 843c f66d 3d3d
00000390: 1e63 f3bd 2623 c63c bd8f edbd c5f0 573e
000003a0: 2d45 02be 1fc6 37be a451 cb3d 4317 e23c
000003b0: 67d9 d1bc 85b2 003e 0cb7 363e 5b36 473e
000003c0: 9323 b03b 15c9 313c e847 103e d470 623e
000003d0: 60f3 9ebc a5f3 47bd fbf7 983b e257 5c3d
000003e0: be06 e2bd 4dbd 563e 6e99 a83a 83ad d43d
000003f0: 7f5f 4f3e 7fd6 e23d 1484 5cbd 76e6 3c3e
-0.19847381 0.1117446 -0.044324353 -0.13418518 0.19786076 0.19789791 -0.0026164423 -0.17747726
-0.000874523 0.09932384 0.035227355 -0.20222604 0.18294112 0.021618277 -0.04614248 -0.1804736
0.10069681 0.08895289 0.12685648 0.12627149 0.047873694 -0.14961034 -0.14723855 0.18774246
0.09636173 -0.16474892 -0.12143231 0.18349761 -0.08093087 0.06319664 -0.026725264 0.098524
-0.030472012 0.07504047 -0.10231241 0.1603343 -0.080072835 -0.18518113 0.06717105 0.090764746
-0.10136153 -0.065153785 0.18360102 -0.01933789 0.13018584 0.20549537 0.112387836 0.14191385
-0.13547547 -0.10733564 -0.036866724 -0.03791021 0.004198292 0.122019894 -0.1954241 0.14582866
0.19814666 0.14528413 0.1632641 0.18456165 -0.024806729 -0.04587309 -0.16598858 0.16339701
0.059013233 -0.0006609647 -0.09709297 0.04545378 -0.11928328 -0.1815649 -0.054334354 0.06886799
-0.17306894 0.19160241 0.06398626 -0.09972734 0.018852431 -0.07385018 0.15396512 -0.16042015
0.17514752 -0.098053485 0.18383074 -0.13102663 -0.15635614 -0.08373374 -0.0044540903 -0.06984689
-0.18155923 -0.17406105 0.19700387 -0.1865074 0.037947215 -0.17920153 0.19754386 -0.13011682
0.1871899 0.15730682 -0.17127384 -0.08167796 -0.07885691 0.1157798 -0.03488511 0.027137216
-0.0954894 -0.043074105 0.1462211 -0.16149022 0.019353326 0.09614639 -0.02469006 0.05719513
-0.08638154 -0.100432515 0.15579551 -0.006705409 0.10690177 -0.14443056 -0.2087018 -0.08225909
0.20609404 0.16541299 0.18972825 -0.18416084 0.14585203 -0.12692079 0.155933 -0.025155032
0.2029198 -0.104518965 -0.11397747 -0.06787921 0.023391414 -0.007754387 0.16273993 0.15952118
-0.03689166 0.06352845 0.11388275 0.08926023 0.0050059743 -0.10039481 0.15443163 0.20981255
-0.08903356 0.19051223 0.0015303602 0.040909138 -0.0192696 0.002236742 0.044514097 -0.09219554
0.07757043 0.105845325 0.17313181 0.1407319 -0.06280277 -0.18364438 0.04881062 -0.015334655
0.19243515 0.18079019 0.17485577 0.20542502 0.05905988 0.044666763 -0.1348474 -0.008818687
0.049091533 -0.20653719 0.106007725 0.09918042 -0.1727829 0.037939236 0.09363744 0.17691803
0.04845794 -0.093857326 0.123265505 -0.15072128 -0.10585867 0.036834277 -0.10332105 0.11056389
0.0847784 -0.08132155 -0.1944834 -0.18318914 0.0061233127 0.0069101052 0.01742216 -0.17376469
0.0902182 -0.16253735 0.050271098 -0.036388144 -0.10324543 -0.083601035 -0.03766968 -0.038652267
-0.09562605 -0.17460205 -0.12514287 0.08260408 0.13703482 -0.14886901 -0.12618132 -0.07229956
-0.06036885 0.008387846 0.07622678 0.14681451 -0.019724296 -0.13383138 -0.1345318 0.058582455
0.05129303 -0.07523898 0.017916124 0.18313223 0.20166034 -0.030306436 0.16159332 0.014605362
-0.12783913 0.057545654 0.016166138 0.046247445 -0.118841395 0.024186682 -0.115996815 0.2108794
-0.12721701 -0.17946671 0.09927681 0.027598983 -0.02561636 0.125681 0.17843264 0.19454329
0.0053753345 0.010851164 0.1408993 0.22113353 -0.01940316 -0.048816342 0.0046682335 0.05379475
-0.11036442 0.2097065 0.0012863108 0.10384657 0.20251273 0.11076068 -0.053836897 0.18447289

h.0.bias f4 [64]
00000000: 1463 323e 2511 e1bc c2df 80bd e064 39be
00000010: 56b4 2dbe 004f 0b3d 435c 413e 99a5 4dbd
00000020: 84cd 70bc b8fd 92bd 2ec3 ef3d f266 44bd
00000030: 5bd9 f73d f348 b53d 7639 bfbd 94f6 31be
00000040: 2fe5 1a3d c650 9c3d fcc9 d5bd ea1d 363e
00000050: 4630 c23d 7c3f 51bd ea33 a73d 775a 4dbe
00000060: 16de 503e bfa5 b93d e00e 023e 7b73 8fbd
00000070: 7f45 28bd fff7 003e e9fb 7dbd 4445 13be
00000080: 0cfe 31be 6a2c c5bc ea6c 283c 4d3d 35bd
00000090: e663 21be f4b3 253e 6cbc 903d 7daf ccbd
000000a0: 69f5 53bd dbd1 38be c907 803d de9e 56be
000000b0: 27f6 6abd dd72 2abe 0a45 13be 026a 92bd
000000c0: 48ac e73d f718 513e 514e 123e 16f5 0c3d
000000d0: 7c14 56bd f68d 9e3d 3a39 9a3c 9f22 11be
000000e0: 49d2 14be 7d42 ff3c e494 b7bd 0221 1abe
000000f0: a9c1 203e fca8 e9bc 7cbe 0ebe 11ce 88bd
0.17420608 -0.027473995 -0.062926784 -0.18104887 -0.16963324 0.034010887 0.18882851 -0.050206754
-0.014697436 -0.07177299 0.117071494 -0.04794974 0.12102004 0.088518046 -0.09337132 -0.17379218
0.037816223 0.07632594 -0.10438916 0.17784849 0.09481864 -0.051085934 0.08164199 -0.20054041
0.20397219 0.09064817 0.12700987 -0.07004448 -0.0410819 0.12594603 -0.06200782 -0.14381891
-0.17382067 -0.02406903 0.010279873 -0.044247914 -0.15760764 0.16181928 0.070671886 -0.09994409
-0.051747713 -0.18048804 0.06251485 -0.2095904 -0.057363655 -0.1664538 -0.14381805 -0.07149126
0.11312157 0.2041968 0.14287688 0.03441342 -0.05226563 0.07741921 0.018826116 -0.14173363
-0.14533342 0.031159634 -0.089639455 -0.15051654 0.15698875 -0.02852296 -0.13939852 -0.06679929

h.2.weight f4 [64, 64]
00000000: 4aca c13d 4b6e e2bd b0c0 cc3d 0db2 ab3c
00000010: f8a8 f5bd 2397 8abd 3b3f 8b3b 0b9c 7b3d
00000020: 109b 10bd b142 913d 6f1f 2f3d 8152 753d
00000030: 3e78 bebc 154d 27bd 466a debd 3507 0bbe
00000040: 8c9e bebd fd04 9abd 647b e13b 5ca3 933d
00000050: b15b efbc d5ac 14bd e6d1 42bd a0cb cc3d
00000060: 48ba 8f3d 5647 f7bd 37ba 6f3d 9d62 1ebd
00000070: e970 adbd e780 123d a0d0 663d d164 e43d
00000080: f30d d2bb 5f9e 153d ee2c bfba e287 a43d
00000090: d764 ccbd e46b 09be efc8 c33c 8ee6 c13b
000000a0: 77b5 0d3d e505 723d f2d8 17bd 907f dfbd
000000b0: 8b9c 5cbd c314 8dbc 2cf7 d1bd a925 2a3c
000000c0: c0db 843d fb40 08bd 3a58 0f3d 9b85 3d3d
000000d0: 2cc0 de3d c964 67bc ccfa fdbc d8f7 8eba
000000e0: 3306 79bd ec82 af3d 3742 70bb d6a6 f4bd
000000f0: dad2 bebd 9637 88bd c8c1 26b8 a7cc d2bc
00000100: 982c 713d d013 b33d b861 c7bc 9c47 4bbc
00000110: c2d3 ee3d e92f febc 79cb 853d 6412 a8bd
00000120: 05fe 51bb e6fd 823d 5ec5 f4bd 6e4c c2bd
00000130: a6ed 20bd 824d debd 86e2 dc3d 326f 98bb
00000140: a78b 2c3d eb2f 07be edc5 b4bd 1978 49bd
00000150: 2bdf bfbc 5fa3 d9bd 21cb e23c 99bf 4f3d
00000160: a678 06be 6764 cfbd 4906 023c 6edb bdbb
00000170: 05a3 b3bd 9c32 9b3d de02 d5bc 5cbc 923d
00000180: a709 bdbd 67c7 10bd 1fe4 babd f883 89bc
00000190: b0cc ad3d 4645 113d 67be 01be 9163 303d
000001a0: d50d ddbd dc6f 94bd 4414 8f3d 7ce8 9e3d
000001b0: 1259 8d3d 6242 553c 9d64 3e3b 36bc a5bd
000001c0: 8090 f0bd 96d6 5abd 7726 afbd aba6 d53d
000001d0: 6a67 063d a878 8c3c d0b9 473d 3292 883d
000001e0: 5a3c 0fbc e64e 003d 8c50 f3bd bf44 d63d
000001f0: b802 d33d 5fc0 963d 801a 493d f21e 5f3d
00000200: 00b1 6b3d 8eb3 833d 6a5c 103c d9fb df3c
00000210: 7962 b2bd 187d 2fbb ec56 333d b2b5 cabd
00000220: 1dcf 1ebd 1ee0 283c ade5 043e e308 123e
00000230: eb75 053e 2e2e 2d3d 8fed a1bd ba93 8fbd
00000240: 52dd 3c3d 61e4 193d afd7 853d f3b7 d5bd
00000250: 5d76 62bd bd39 8cbd 3eda fb3d 08e4 d5bd
00000260: dd2d 31bd 1740 d53d 657f 94bb 003a 99bd
00000270: 1985 98bd dc5c 293d bf39 f83d d092 a13d
00000280: 0579 7c3d a8cf 30bd 304a 243d f654 8fbd
00000290: 76a7 6ebd 3dcf 39bd a727 b03d d48f e5bc
000002a0: dca7 b3bd ed23 bf3d e243 51bb c764 133d
000002b0: 25ad 9b3d d8a2 483b 4b68 703d eba6 d53d
000002c0: 9f80 70bc 2efb ee3d a9bb 563d 64c1 d23c
000002d0: 0d33 adbd 257d ed3d 6a20 303d 5d81 bf3d
000002e0: 04b6 e73c 822f a83d 2b69 f33d 7a5e 023d
000002f0: ca6d 083d 7c90 c0bd cc50 fdbb 4f30 8dbd
00000300: b81a c53d 0e84 983c 9ec6 d2bd dac1 2abd
00000310: c10a 49bd a200 c03d 09b9 7b3d 0d3d 373d
00000320: 273a ab3d b77d abbd bb6f 363d 9da0 8bbd
00000330: 1f75 d6bc 48c7 35bd 858c 023d f226 ed3d
00000340: 19d6 cd3d 9cd5 8cbd 438f bd3d ff51 52bd
00000350: 3bc6 ccbc 7aa4 6fbd da34 dfbd 3ccd 4abd
00000360: 690f 07bd deec fcbd 537b 5a3d fec6 c5bc
00000370: 635d c73c f073 e3bd cd44 243c 790f 16bd
00000380: e183 c1bd 8df1 bf3b eff0 ebbd 8c0f eabd
00000390: 806a 36bd e785 e03d 1a9f 17bd a78c f4bc
000003a0: 0cac 813c a713 ec3d b568 f13d 9d5d 36bd
000003b0: 6b92 d4bb 40d4 f6bd aae1 4ebd 6559 953d
000003c0: f346 05be 07b9 d8bd 0037 2e3d 3040 f0bd
000003d0: 04b7 71bd 3ddb dbbd 3d4d f8bd a1bf 1bbd
000003e0: 77dd d73c 7ff8 88bd 3b5d 82bd 8405 05bd
000003f0: 5593 62bd 3255 d53d c586 873c b90a 03be
0.09462412 -0.11056193 0.0999769 0.020958925 -0.11995119 -0.06767108 0.004249481 0.06142811
-0.03530413 0.070927985 0.042754587 0.059893135 -0.023250695 -0.040844996 -0.10860114 -0.13576968
-0.09307584 -0.07520483 0.0068811644 0.07208893 -0.029218527 -0.036297638 -0.047563456 0.09999776
0.07017952 -0.12074153 0.058527198 -0.038668264 -0.084688015 0.035767462 0.056351304 0.11152042
-0.0064103543 0.036527988 -0.0014585534 0.0803373 -0.09980171 -0.13420063 0.023899524 0.005917377
0.034596886 0.059087653 -0.03707213 -0.109130025 -0.05386023 -0.017221814 -0.102522224 0.010384955
0.064872265 -0.033265095 0.03499625 0.046269994 0.108764976 -0.01412315 -0.031003378 -0.0010907603
-0.060796928 0.08569893 -0.003666056 -0.11945884 -0.093175605 -0.06651227 -3.9757957e-05 -0.025732351
0.05888042 0.08744013 -0.024338588 -0.01240721 0.11661483 -0.031028705 0.0653295 -0.08206633
-0.0032042277 0.063960835 -0.11951707 -0.09487234 -0.03928914 -0.10854627 0.107853934 -0.0046519274
0.04212537 -0.13201873 -0.08826814 -0.0491868 -0.023421844 -0.10626864 0.02768475 0.05071983
-0.13131961 -0.10126572 0.007936069 -0.0057939803 -0.08771328 0.07578012 -0.026002344 0.07164833
-0.09230357 -0.035346415 -0.09125542 -0.01678656 0.08486307 0.035466455 -0.12670289 0.043063704
-0.10793654 -0.07247898 0.06986287 0.077591866 0.069017544 0.013016315 0.002905167 -0.08092539
-0.11746311 -0.0534273 -0.085522585 0.1043218 0.032813467 0.017147377 0.04876119 0.066685095
-0.008742416 0.031325243 -0.118805975 0.10462331 0.10303253 0.073609106 0.049097538 0.05447287
0.057541847 0.06430732 0.008811096 0.02734177 -0.087101884 -0.0026777443 0.043784067 -0.09897937
-0.038771737 0.01030734 0.1297824 0.14261203 0.13033263 0.04228037 -0.07906639 -0.070105985
0.046109505 0.037571315 0.06535279 -0.10435476 -0.05528866 -0.0684695 0.12297486 -0.10443884
-0.04325663 0.10412615 -0.004531788 -0.07481766 -0.07447261 0.041348323 0.12120389 0.078893304
0.06163885 -0.043166786 0.040109813 -0.06998627 -0.058265172 -0.045363653 0.08601313 -0.028022684
-0.08772251 0.09333024 -0.003193133 0.03598478 0.07601384 0.003061464 0.05869321 0.10432228
-0.014679103 0.116690025 0.05242506 0.025726981 -0.08457003 0.11596135 0.042999662 0.09350846
0.028285034 0.082121864 0.118852936 0.03182838 0.033307828 -0.09402558 -0.007730579 -0.0689398
0.09624237 0.018617656 -0.102917895 -0.041688778 -0.04908252 0.09375121 0.06145576 0.044735957
0.08360701 -0.083735876 0.04454015 -0.06817744 -0.026178895 -0.044379503 0.03187229 0.11579694
0.100506015 -0.0687668 0.09255841 -0.05134773 -0.024996867 -0.058506466 -0.108987525 -0.049512133
-0.03297368 -0.12349866 0.053340267 -0.024142738 0.024336522 -0.11106098 0.010026169 -0.03663585
-0.09448982 0.0058576525 -0.11520564 -0.114287466 -0.04453516 0.1096304 -0.037016965 -0.029852225
0.015829109 0.11527186 0.117875494 -0.04452287 -0.006487181 -0.12052202 -0.05050818 0.07292441
-0.13015346 -0.10582166 0.04253292 -0.11730993 -0.059012428 -0.10735176 -0.12124107 -0.03802455
0.02635072 -0.06688022 -0.063654386 -0.032475963 -0.055316288 0.1041664 0.016543755 -0.12797059

h.2.bias f4 [64]
00000000: f067 1dbd 09ae 2c3d 29cf d63d 90ee c43c
00000010: f4fd 4d3d c2ae c23d 8335 1d3d 8710 77bd
00000020: 9c21 fa3d 2877 d03d cf4c 9b3d f0a2 8ebd
00000030: 92cf c5bc 1b83 cc3d 98c7 043e 8e37 c43d
00000040: 7afb 603c 6430 b33d 8335 b83c db3f 083e
00000050: 480f b93d 070a 2abc 0999 a1bd 2184 5ebd
00000060: 8096 b0bd d980 d6bd 7ebc 5f3d 5872 80bd
00000070: 5319 bebd 7f4d 99bd 0e8f 15bc 8d84 b7bc
00000080: 2905 39bd c3b9 ea3c 913e bebd 1aa9 503d
00000090: 5854 513c 8c64 933d 09d2 673a aecb 6fbd
000000a0: 833b 49bd 1098 bb3a 98b1 073d e484 a13d
000000b0: 84a4 c4bd a87a c5bd 1ed5 aabd bd7b bf3d
000000c0: 48a6 0a3d 4f35 893d ffeb 733d 4dbb d53c
000000d0: dd30 f03d 3029 653d 43ca 57bb 6d96 013e
000000e0: 4bf0 d9bd e0a4 fd3c 8126 d93d 4b70 633d
000000f0: d47e 9dbd 0720 e43d c19a 913c b0a9 97bc
-0.0384292 0.04215816 0.104887314 0.024039537 0.050291017 0.09505989 0.03838111 -0.060318496
0.12213442 0.10178977 0.075830095 -0.069646716 -0.024146829 0.09985944 0.12966764 0.09580909
0.013731832 0.08749464 0.022486454 0.13305609 0.09036118 -0.010378367 -0.07890517 -0.054325227
-0.086224556 -0.104737945 0.05462312 -0.06271809 -0.09282174 -0.07485484 -0.009128345 -0.022402072
-0.045170937 0.028653031 -0.09289277 0.050942518 0.012776457 0.07196912 0.00088432484 -0.058543853
-0.04912902 0.0014312286 0.03312835 0.07886675 -0.09601691 -0.096425354 -0.0834143 0.09349773
0.033849984 0.06699621 0.059551235 0.026090289 0.1172807 0.055947483 -0.0032926954 0.12655039
-0.10641535 0.030962408 0.10603047 0.055527013 -0.07690206 0.11138921 0.017773988 -0.01851353

h.4.weight f4 [1, 64]
00000000: eea4 c2bc 20e8 bbbd 2ef7 b83c ca2f 183b
00000010: b771 4a3d 0a93 6abd 8d1b a93c 926d edbd
00000020: b7ad e83d 6a81 193d 4130 6e3d e7be db3d
00000030: df47 b2bc bdd8 7c3d 5f3d cf3d e32f 69bd
00000040: f06c f7bc 610e 02bd e4db 30bd de77 ed3d
00000050: 4b38 de3d af10 0f3c 9c1e e4bd f223 7a3d
00000060: c0a1 be3b 5a8e bebd face 5bbc 936e 31bd
00000070: 2ae4 813d e7a4 b23d 3aa6 b73b c8c9 e9bd
00000080: 7dd3 c93d 5335 9cbc b1c5 c23d 3a1e 5d3c
00000090: 47c3 2a3d 277d d3bd 0c66 c3bd 1322 103d
000000a0: ab3c 15bd ba86 5c3d b42f b6b9 7b9b b3bd
000000b0: 87a5 c6bb 9c15 48bd 97bb ad3d 12ef 873d
000000c0: d176 97bc ac5a c43d 637e d938 3937 143e
000000d0: 03e3 9b3d 0015 833d 917c 8d3d 29b7 b23d
000000e0: b055 c9bd 74bc 0c3e abe8 c23d 21c6 013d
000000f0: c82d 053d 878c 25bc 76b4 d53c 77e9 06bc
-0.023760285 -0.09175134 0.022578802 0.0023221844 0.049424853 -0.057269134 0.02064302 -0.115931645
0.113612585 0.037476934 0.058151487 0.10729771 -0.021762786 0.061730135 0.101191275 -0.056930434
-0.030203313 -0.031751994 -0.043178454 0.115951285 0.10850581 0.008732005 -0.11138651 0.061069436
0.005817622 -0.09304495 -0.013416046 -0.043318342 0.06342347 0.08722859 0.0056045325 -0.1141544
0.09854791 -0.019068396 0.09510363 0.013495976 0.041690137 -0.10326605 -0.09540948 0.035188746
-0.03643481 0.053839423 -0.00034749287 -0.0876989 -0.006062213 -0.048848733 0.084830455 0.06637396
-0.018489273 0.09587607 0.00010370908 0.14474191 0.076116584 0.0640049 0.06908525 0.08726341
-0.09830797 0.13743764 0.09517034 0.03168309 0.032514364 -0.010104305 0.026087027 -0.008234373
