models_airl/2022-06-07_17-20/step_4096_reward_0/disc.pt (torch, 53851 bytes, 10 tensors)

g.0.weight f4 [64, 36]
000000 fd 56 a5 3d 1d 16 a1 bd 4d 30 18 bd 59 56 95 3d
       0.08073232 -0.07865546 -0.03715544 0.0729186
000010 0a 75 25 be 5b ed c4 3d 85 b4 21 bd 42 ec a2 3d
       -0.16157928 0.096155845 -0.039478797 0.07955219
000020 5f a8 93 3c 8c 6d d1 bc 45 a0 27 3d 58 2a 51 3b
       0.018024622 -0.025564931 0.04092433 0.0031916108
000030 6f f9 62 3d 25 38 8f bd f6 70 8c bc d7 86 a2 bc
       0.05541366 -0.069931306 -0.017143708 -0.019839687
000040 bd ae 9d 3c e7 3b 89 bb 82 dc 0f 3e fe c9 3f 3d
       0.01924836 -0.004188049 0.14048961 0.046823494
000050 c4 4a 8a bd bc 3b d8 bd 97 2f 07 bd 7a 88 9d bd
       -0.06752542 -0.105582684 -0.03300437 -0.076920465
000060 b6 98 70 bd 16 67 45 3b d7 be c0 3d 04 4c af 3d
       -0.058739386 0.0030121258 0.094114 0.08559421
000070 ca 53 2b be 51 41 c9 3d b9 d0 28 3d 83 b6 1c 3e
       -0.16731182 0.09826911 0.04121468 0.15303998
000080 cf ca d6 3d 7c 6a 20 be 8f b7 26 be 81 42 af bd
       0.104879014 -0.1566562 -0.1628096 -0.085576065
000090 9d a1 11 3e 50 53 ff bc 06 0d 88 3d d8 83 9f bd
       0.14221807 -0.031167656 0.06643109 -0.07788819
0000a0 90 fc 22 3e 52 26 95 bd ce bb f6 3d 39 b0 6a b9
       0.15916657 -0.072827 0.1204754 -0.00022381627
0000b0 5b 49 bc bd 3e e0 a7 3d 36 be bc bd 4e 72 34 3d
       -0.09193679 0.08197068 -0.09215967 0.044054322
0000c0 d5 e0 40 bd 72 25 bf bc a2 85 25 be 06 e4 a5 bd
       -0.047089417 -0.023333285 -0.16164258 -0.08100133
0000d0 d0 4f b0 3d 6a 1d 13 bd ed 8b 25 3e be 90 05 3e
       0.08608973 -0.035916723 0.16166659 0.13043496
0000e0 f2 be dd bb 68 cc ed bd 33 ca c7 3d 9e 8a 3f 3d
       -0.006767147 -0.11611253 0.09755363 0.046763055
0000f0 7e b8 e7 bd 23 f3 da 3d b7 90 c7 3d ae ac 13 3e
       -0.11314486 0.10690906 0.09744399 0.14421341
000100 6a cb c6 bd 41 e9 ff bc d6 8b de bb 74 22 a3 3c
       -0.09706767 -0.031239154 -0.006791572 0.01991389
000110 f9 52 05 be 11 d4 f9 bd f0 74 b4 3d 51 d6 30 bd
       -0.13019933 -0.121986516 0.088113666 -0.043173138
000120 cc 91 a4 3d 0c 44 e2 3b 57 13 6e 3d e3 40 2d 3d
       0.08035621 0.0069050845 0.058123913 0.04229821
000130 4b ae 63 3d 59 85 ac 3d bb db 1a be 23 a7 b7 3d
       0.05558614 0.084238715 -0.15122883 0.08967426
000140 82 29 f2 bd a1 1c f8 bd 4d 1e 6b 3c b7 ce 09 bd
       -0.11824323 -0.121148355 0.014350486 -0.033644404
000150 7a 50 ce 3d 96 f0 c5 bd 06 15 15 be 97 64 01 3e
       0.100739434 -0.09665029 -0.14558801 0.12636028
000160 86 01 a3 bc f2 d5 c4 3d 2e bb 4b 3d be 70 f4 bd
       -0.019898187 0.09611119 0.049739055 -0.11935566
000170 28 d4 14 3d c9 d2 22 3d 6c a1 d8 bd fa b0 ac bd
       0.03633514 0.0397518 -0.10577664 -0.08432193
000180 af 1c 58 3d 53 c7 0f 3d f5 aa 97 bd 44 27 3a bd
       0.05276173 0.0351022 -0.07405654 -0.045447603
000190 bf c0 1d 3e 4c 80 e0 bc 91 0c c1 3d 73 d6 97 3d
       0.15405558 -0.027404927 0.09426225 0.0741395
0001a0 85 d4 d9 bd a9 0b 0c be 29 11 26 3e 1c 0a 45 3c
       -0.10636238 -0.13676323 0.16217484 0.012026336
0001b0 56 b5 f3 3d 42 cc 24 3d d5 a9 6b 3d 19 35 f3 3d
       0.118998215 0.040233858 0.05753501 0.11875362
0001c0 61 00 28 3e b0 9d dd bd 06 ec d7 3c 75 54 f4 3d
       0.16406395 -0.10821092 0.026357662 0.119301714
0001d0 9a 81 00 3e da 06 c9 3d 01 ed ea bd 15 ed e9 bd
       0.12549439 0.0981576 -0.11470986 -0.11422173
0001e0 d3 59 d8 bd f1 8a d9 3c 6c e8 2f 3e 85 53 d5 bd
       -0.105640076 0.02655551 0.17178506 -0.10416321
0001f0 ed 7b b3 3d 0a 81 c0 bd be a9 1a be da c9 13 bd
       0.08763871 -0.09399612 -0.15103814 -0.036081173
000200 83 be ba 3d 36 69 24 3e 20 f8 ce bd a6 e2 2b 3d
       0.091183685 0.1605576 -0.1010592 0.041964196
000210 a4 f6 16 3e c1 ef e0 3d 8e e5 df 3d a7 c3 eb 3d
       0.14742523 0.109832294 0.10932456 0.11511927
000220 a0 88 dd 3d 71 02 42 3d 04 42 eb bd 01 41 0a be
       0.10817075 0.04736561 -0.11487201 -0.1350136
000230 7d a9 99 bd 2f d2 72 bc b7 81 db bd 23 5e 88 3d
       -0.075030304 -0.0148206195 -0.107181005 0.0665858
000240 18 93 3d 3d 89 76 30 bd fc 02 70 3d 88 ab 45 3d
       0.046282858 -0.043081794 0.058596596 0.048259288
000250 ca 15 c5 3d b0 c9 dc 3d 29 6a 7d bd d1 1f 21 3e
       0.096232966 0.10780656 -0.06186882 0.15734793
000260 7a 3f c9 bc eb e4 39 bc 17 4f 26 be 1a 8e e5 bd
       -0.0245664 -0.011346082 -0.16241108 -0.11208744
000270 5c 12 d2 bd 33 f8 9c bd ca 3d e7 3d 74 b6 74 bd
       -0.10257408 -0.07664528 0.11291082 -0.059744313
000280 43 d5 03 be 33 68 80 3d dc c6 43 3d 09 fa d1 3d
       -0.12874322 0.062698744 0.04779707 0.102527685
000290 49 4b bb bd 37 2d fa 3c 27 32 87 bd dd 1c 2d bd
       -0.09145219 0.030539138 -0.06601363 -0.042263854
0002a0 3b 66 0d be 70 ed a5 bd 30 4a 66 bd 67 fc 86 3d
       -0.13808529 -0.08101928 -0.056223094 0.06591111
0002b0 66 f8 ca 3c a2 65 12 3d ec d6 24 3e 5c e6 20 3e
       0.024776649 0.035741456 0.16097611 0.15712875
0002c0 62 e0 dd 3d d8 50 dc b7 20 ab f5 bd e4 75 ff 3d
       0.10833813 -2.626369e-05 -0.1199553 0.12473658
0002d0 3e 3a 13 bd f2 d7 5c bc 9c 55 12 be 1b 0e 13 bd
       -0.035944216 -0.01347922 -0.1429047 -0.035902124
0002e0 00 3b d3 bd c1 ad 1d 3e 93 d7 12 be 76 cd 04 be
       -0.10313988 0.15398313 -0.14340048 -0.12969002
0002f0 d8 6b 9a 38 c4 4b ae bd 17 b7 69 3d 1e 25 7b bd
       7.36338e-05 -0.08510545 0.057059374 -0.061314695
000300 5a 22 a1 bd 17 db 5a 3c a0 f9 fa 3d f7 a2 f5 bd
       -0.0786788 0.013357899 0.122546434 -0.11993974
000310 30 3f a0 3d db 49 da 3d f8 ad 2a 3e e9 02 f5 bd
       0.07824552 0.10658618 0.16667926 -0.11963446
000320 e9 b4 23 3d f0 f6 f9 bd 3e 04 14 3e 0a 2e 7d bd
       0.03996745 -0.12205303 0.14454743 -0.061811484
000330 ec 4e c9 3d a9 8f 8e 3b c8 aa 20 bc 88 bd 33 bb
       0.09829506 0.0043506217 -0.009806342 -0.0027426202
000340 69 b0 09 3d 14 f8 a0 3d a6 59 e1 3c 1f ad 58 3d
       0.033615503 0.07859817 0.027508568 0.052899476
000350 1f a3 17 be a2 2f f2 3d cd fb 19 3e 42 ab 11 3e
       -0.1480832 0.118254915 0.1503746 0.14225486
000360 c6 4d 04 3e ba cd eb bd 8e 53 69 bd e6 5d 1c 3e
       0.12920293 -0.115138486 -0.05696445 0.15270194
000370 d0 8a f8 bd 11 99 1f 3e dc 49 00 be 6f 28 e4 bd
       -0.121358514 0.15585734 -0.12528175 -0.111405246
000380 19 28 b3 3d d8 d7 ea bd 2a 57 05 bd 07 ee 01 3e
       0.087478824 -0.1146695 -0.03255383 0.12688456
000390 e7 05 0d 3e 6b 71 27 3e 51 d1 ec bc 99 27 ff bd
       0.13771783 0.1635186 -0.028908404 -0.124587245
0003a0 cf 17 2e 3e 26 e5 06 bd f6 d8 80 bd 12 1b 3f 3d
       0.1700127 -0.032933377 -0.06291382 0.046656676
0003b0 e6 05 e3 bd 50 5b ec 3d 3b 47 e2 3d 4f a6 01 be
       -0.110851094 0.11540854 0.110487424 -0.12661098
0003c0 a4 34 06 be a1 92 17 bc c9 3c 9b 3d 5a 06 80 3a
       -0.13106018 -0.009251268 0.07579953 0.0009767518
0003d0 06 54 a1 bd 8e 38 19 3c ba a1 1a be 47 98 e6 bd
       -0.07877354 0.009351863 -0.15100756 -0.11259513
0003e0 9b 99 d8 bd 54 91 12 3e 3e 51 1c 3e b6 3f 51 bd
       -0.10576173 0.14313251 0.15265366 -0.05108615
0003f0 5e 0b 5e 3c fa ef a4 3d 25 75 d4 3c 7f 9b 9e bd
       0.013552515 0.080535844 0.025934765 -0.07744502

g.0.bias f4 [64]
000000 da a0 b2 bc b9 25 92 3d 8b a3 f4 3d ef 44 f4 3b
       -0.021805216 0.07136101 0.11945256 0.0074545066
000010 94 d7 c3 bd 24 0b 02 be db 15 f6 bd 94 c4 0f 3e
       -0.09562603 -0.12699562 -0.12015887 0.14039832
000020 6a 44 1a be 65 c5 74 bd d0 ce a7 3d 2b 41 c7 3d
       -0.1506516 -0.059758563 0.08193743 0.09729227
000030 d7 2e 1b be 65 b8 1e 3d a9 af 77 3c 13 ee 22 3e
       -0.15154587 0.03875007 0.015117564 0.1591113
000040 a9 61 30 bc 26 f7 9c 3d f0 2d 07 bc cf 7b 12 3e
       -0.0107654715 0.07664327 -0.008250698 0.14305042
000050 e4 02 bb bc 40 32 bc bd b5 44 17 3d 88 e9 be bd
       -0.022828527 -0.09189272 0.03693076 -0.09321886
000060 a1 99 43 3d cd 21 e1 3d 8b 57 09 be 29 f2 eb bd
       0.047753934 0.10992775 -0.13412301 -0.11520798
000070 c3 a4 09 3c 68 cb 7f bc 0c ab 6b bd 31 23 15 3e
       0.008401099 -0.015612461 -0.05753617 0.14564206
000080 c4 a7 a5 3d ef 7a 49 bd 97 76 d4 3c c4 ea 9a bc
       0.080886394 -0.049189504 0.025935454 -0.018910773
000090 17 dd e5 bd ff 22 98 3d f2 1b d5 bd 77 c9 89 3c
       -0.1122381 0.0742855 -0.10405721 0.016819699
0000a0 8c 70 f4 3d 22 ab 21 be 7c 62 22 3b 08 fc 23 3e
       0.11935529 -0.15787938 0.002477794 0.16014111
0000b0 a4 32 8e 3d 47 91 73 bd 06 9e 04 3d 8a 0c 1a be
       0.06943253 -0.05946472 0.032377265 -0.15043846
0000c0 05 60 04 3d 40 43 1a 3e 82 3b 0e 3e 42 5c 40 3b
       0.032318134 0.15064716 0.13889888 0.0029351865
0000d0 aa fc 60 3d cf bb 07 bd 34 f8 26 bd 58 95 1b 3c
       0.05492846 -0.033138093 -0.04076405 0.009496056
0000e0 96 2d d2 bd d4 33 96 3d dc e9 b3 3d c3 8b 37 bd
       -0.10262601 0.07334104 0.087848395 -0.04481102
0000f0 a6 d9 1d bd 1b ae eb bd 14 ed 89 3c 9b 7c 94 3d
       -0.038537644 -0.11507817 0.01683668 0.07250329

g.2.weight f4 [64, 64]
000000 4d fd fe 3d 8b bc e4 bd d7 3c cb bd 54 ed 1e 3c
       0.12450657 -0.11168774 -0.09923714 0.009700138
000010 52 76 f8 3d 76 0e 63 3c e7 42 27 3d 96 13 c4 3c
       0.12131943 0.013858428 0.040835287 0.02393512
000020 bf e2 2b bc 35 09 c3 3d 0d df c7 3d 10 05 87 bd
       -0.010491072 0.095232405 0.097593404 -0.065927625
000030 a1 df 8c bd 7b 8b ba bd 4e c6 ce bc cd ef 5b 3b
       -0.06878591 -0.09108635 -0.025241043 0.003355968
000040 a3 e9 e2 3d 04 1c eb bd 57 40 c2 3d 7a 30 83 bd
       0.11079719 -0.11479953 0.09484928 -0.064057305
000050 20 05 86 3c 86 d1 5e b9 4a 5c 9d 3d 0e 0e cb bd
       0.016359866 -0.00021249623 0.07683618 -0.0991479
000060 72 1e a6 bd 41 30 12 3c 3e 88 8d 3d da c0 5d bd
       -0.08111276 0.008922637 0.06910752 -0.054138996
000070 56 91 37 3d d2 68 dc bc 52 0e e3 bd 84 da a7 3c
       0.044816338 -0.026905451 -0.11086716 0.020489939
000080 57 46 a8 bc f3 14 a4 3d 65 36 b5 3d dd 39 b4 3d
       -0.020541353 0.08011808 0.088482656 0.08800099
000090 47 05 ac 3d 8c 62 b9 bd 7b 16 e9 bd c2 e4 a3 3c
       0.08399444 -0.090519994 -0.11381241 0.020006541
0000a0 86 2b 2e 3d af 76 bb bd b1 76 dd 3d 51 4f e6 bb
       0.042521976 -0.091534965 0.10813654 -0.007028498
0000b0 ca 6e 89 bd d5 29 bc 3d 2d bf ec 3d 01 72 cc 3c
       -0.067105845 0.09187666 0.115599014 0.024956705
0000c0 e2 c4 0a bd 06 ee a1 3c 74 33 b0 bd ac 2d aa 3d
       -0.03387917 0.019766819 -0.08603564 0.083094925
0000d0 33 ea ac 3d 54 67 98 bc ba cd be bd 28 b8 ca 3d
       0.084431075 -0.018603958 -0.09316583 0.09898406
0000e0 4f 45 c5 bd 54 78 73 bd 9d 5a a5 3d 10 60 65 bd
       -0.0963236 -0.059440926 0.08073924 -0.055999815
0000f0 75 b5 ef 3c e3 f0 de 3d ac ba 20 bc 4f 2d b6 bc
       0.02926133 0.10885789 -0.009810131 -0.022238402
000100 93 34 f5 3d 6f 12 d6 3c e7 7f 43 3d d3 76 17 bd
       0.11972918 0.026131837 0.0477294 -0.036978554
000110 49 eb d4 bd 73 68 b5 3c cf ec 8f bd 46 20 77 bd
       -0.103964396 0.022144532 -0.070275895 -0.060333513
000120 b6 0a cb bd 84 d1 e2 3d 5e 98 a3 bd bb 87 24 3d
       -0.09914152 0.11075118 -0.07988046 0.040168505
000130 2c 4d f6 3c 8d c9 ba 3d 21 4c 90 3d da 81 aa bd
       0.030066095 0.09120474 0.070457704 -0.083255485
000140 be 61 75 3d 19 4a 71 bd 6d ae ed 3b d2 de 27 bd
       0.059907667 -0.058908556 0.007253459 -0.040983982
000150 45 6f d2 bd c8 38 19 3d 58 ef a0 bd b6 7d fa 3d
       -0.10275129 0.037407666 -0.07858151 0.12231009
000160 42 70 62 3d ad 39 20 bd 7b 29 92 bd da 73 e3 bd
       0.05528284 -0.039117504 -0.07136818 -0.11106081
000170 63 0c 7b bd d6 2b 9e bd 51 97 91 3c 20 2e 0b 3d
       -0.06129111 -0.07723205 0.017772349 0.033979535
000180 87 38 e8 3d 0b c5 ae 3c 57 e8 b6 bc 59 5c 51 bd
       0.11338907 0.021334192 -0.022327585 -0.05111346
000190 b6 40 89 bc 0a 48 91 3d cf 9d f0 bd 4a 92 e5 bd
       -0.01675449 0.070938185 -0.117488496 -0.11209543
0001a0 ce 75 59 3d fc f2 1d bd ff 94 08 bd 7e f5 9a bd
       0.053090863 -0.038561806 -0.03334522 -0.07566355
0001b0 31 e9 a0 bd 78 ce b5 bd fe 2f 95 bd 56 b4 e7 bd
       -0.07856978 -0.088772714 -0.072845444 -0.11313693
0001c0 8c b7 5f bd 7c 60 d7 3d ff aa 88 bd bc cc c8 3d
       -0.054618403 0.1051645 -0.0667324 0.09804675
0001d0 bd 47 d2 bd 6a 13 8d 3c 2b ee c1 bb 99 fe b8 bd
       -0.10267589 0.017221171 -0.0059182844 -0.09032936
0001e0 79 72 eb 3b c2 eb dd 3d 55 53 58 bd c9 6a ed 3d
       0.007185277 0.10835983 -0.052813847 0.11592633
0001f0 6c 1d 33 bc d2 71 14 bd 90 d2 87 3d 51 74 d1 3d
       -0.010932308 -0.03624136 0.066319585 0.10227264
000200 d7 c2 d4 3d 2f ed 8d 3d 74 db ea bd 20 fe ed bc
       0.10388725 0.06930005 -0.114676386 -0.02905184
000210 c7 52 34 3c ed 74 77 bd d8 3e 69 3d 0b 65 04 bd
       0.011006064 -0.060414243 0.056944698 -0.032322925
000220 72 f2 e0 bd 1c a6 71 bd 0d 9e ab bd 95 a0 32 3d
       -0.10983743 -0.058996305 -0.08379755 0.043610174
000230 18 ba c2 bd 06 80 11 bd 3e 2e 2e 3c 0b 4a 57 3d
       -0.09508151 -0.035522483 0.010631142 0.052560847
000240 83 ba cc bd 2d 6f a6 3d cf c3 ab bd 63 84 cd bd
       -0.09996512 0.08126674 -0.08386957 -0.100350164
000250 17 a0 3d 3d b2 bb 9b bd e9 99 af 3d 1f f7 53 3d
       0.04629525 -0.076041594 0.08574278 0.051749345
000260 dd 82 83 bd f0 8c 00 bd 3a 2d 76 bd e9 73 82 bc
       -0.064214446 -0.03138441 -0.060101725 -0.01592441
000270 10 d3 76 bb ab 43 e7 bb 8f 07 b0 bd 59 98 de bd
       -0.0037662424 -0.007057627 -0.08595192 -0.10868902
000280 99 72 ad bd 19 5a 8a 3c 1c ed 07 3c 8d 0b 8b bd
       -0.084691234 0.016888665 0.008296277 -0.067893125
000290 59 bd b2 bc f8 48 e9 bb 03 ea ae 3d eb 79 ef bd
       -0.021818804 -0.0071192943 0.08540728 -0.11693176
0002a0 9c 49 74 bd 22 72 84 bc d4 2d c6 bc 00 07 8f bd
       -0.059640512 -0.016167704 -0.024191774 -0.06983757
0002b0 66 cc 6c 3d 1a 7e 52 bd aa a1 22 3c 94 00 95 bd
       0.057812117 -0.05138979 0.009926239 -0.07275501
0002c0 44 05 f5 3d 59 be a0 bd e0 c8 fa bc 9d 71 c7 3d
       0.11963895 -0.07848806 -0.030613363 0.09738467
0002d0 1e 40 81 3d e3 39 e9 bd 9b 16 9b 3d 1c dc 92 bd
       0.063110575 -0.11387994 0.07572671 -0.07170889
0002e0 52 2f 91 bc 57 54 3d 3d 86 db 80 3b 50 44 bc 3d
       -0.01772276 0.04622301 0.0039324192 0.09192717
0002f0 a1 a6 49 bd 4e 75 bb bd 3a 16 88 3b 24 6f 26 3d
       -0.049231175 -0.091532335 0.0041530402 0.040633336
000300 ea e2 b7 3d 4f 94 8a bd a6 3a 9c bc 86 78 9a bd
       0.08978827 -0.06766569 -0.019070935 -0.07542519
000310 e1 0f c0 bd 72 2f cf bd 1f 17 b2 bd f2 1f a3 bd
       -0.09378029 -0.10116471 -0.08695816 -0.079650775
000320 49 c2 20 3d f8 38 a7 bc 39 a0 99 3d 2b 56 bb 3d
       0.039247785 -0.020412907 0.07501263 0.091472946
000330 75 2f ce bd 92 2e 9f 3c 37 d0 82 3d dd 81 d5 bd
       -0.100676455 0.019431386 0.0638737 -0.1042516
000340 d7 1e 27 bd 94 95 af 3d fd 85 c4 bd ac b4 de 3d
       -0.040800896 0.08573452 -0.09595869 0.10874304
000350 ab dc c9 3b f5 6e a3 3c f3 ca cb 3d 0e bd ee bd
       0.006160339 0.01995037 0.09950819 -0.11657153
000360 cb 77 d1 3d ea 41 ec bd a9 d3 6a 3d 80 45 05 bc
       0.10227927 -0.115360096 0.05733076 -0.008134246
000370 a7 d9 c0 3d c8 46 c6 bb d4 f5 00 be 7c c8 3e 3c
       0.09416514 -0.0060509183 -0.12593776 0.011644479
000380 4e ea a0 3d 36 3f e7 bc b5 43 fa bd bb 7f b8 bc
       0.0785719 -0.028228384 -0.12219945 -0.022521844
000390 6d e2 44 3c 7d bb d6 3c 5e f1 12 3d d1 40 a6 bc
       0.012016875 0.026212448 0.035874717 -0.020294579
0003a0 fc 6e 26 bc 4f 25 d0 bc 48 3c 37 3d 50 56 c0 3c
       -0.010158297 -0.025408415 0.044735223 0.023478657
0003b0 32 e6 3d 3d 2a e5 81 bc 52 bc 7c bc ef 47 b5 3d
       0.04636211 -0.015856344 -0.015425758 0.08851611
0003c0 4e 3f 2f 3c 49 a5 f3 bd e3 65 ac 3c d2 23 e8 3d
       0.010696245 -0.1189676 0.021044677 0.11334957
0003d0 a2 e1 e2 bc 78 2c 93 3d 12 e6 bf bd 02 77 c1 bc
       -0.02769548 0.07186216 -0.09370054 -0.023616318
0003e0 ad f8 a8 3d 78 c1 87 bd b8 27 0f bd 60 fd 97 ba
       0.08250556 -0.06628698 -0.034949988 -0.0011595897
0003f0 e5 9d af bc 92 6c 16 bd 38 e3 a7 3d 87 2a db bc
       -0.021437595 -0.036724634 0.081976354 -0.026753677

g.2.bias f4 [64]
000000 ae 25 c3 bc a0 de 09 bd 2b 9a 64 bd cb e0 e5 bd
       -0.023821678 -0.033659577 -0.05581109 -0.112245165
000010 9c 74 52 bd a7 9d 23 bc 20 5b d7 bd cd 7c d2 bd
       -0.05138074 -0.009986318 -0.105154276 -0.1027771
000020 ca bf cb 3d 6f f3 b1 3d b3 37 c0 bd 4d 52 ab bd
       0.0994869 0.086890094 -0.09385624 -0.08365307
000030 58 ef 25 3d 8b 7a 1b 3d cc e9 b4 bd fc 13 59 bc
       0.04051146 0.037958663 -0.08833656 -0.013249394
000040 ec 92 b1 bd e1 19 2b bc 60 f2 af bd bc 22 c7 bc
       -0.08670601 -0.010443182 -0.08591151 -0.024308555
000050 6c 00 1a ba 6d 10 8c bd 5f b2 e0 3d 27 ff ea bc
       -0.00058746967 -0.068390705 0.109715216 -0.02868612
000060 d9 00 6f 3d 7f cd 4e 3c c5 25 78 bd 7f 36 98 3d
       0.058350418 0.012622236 -0.060582895 0.07432269
000070 78 90 a7 bb 67 06 54 bd 5b 05 8d bc 7e 32 d4 bd
       -0.0051136576 -0.05176392 -0.017214468 -0.10361193
000080 8e b1 de bc 30 94 d2 3c 29 15 a3 3d 78 d5 80 bd
       -0.027184274 0.025705427 0.0796302 -0.06290716
000090 3c 75 e4 bd b3 7b 91 bd 7c e8 5d bd 19 b2 18 3c
       -0.11155173 -0.07103672 -0.054176793 0.009319806
0000a0 57 7a 53 bd b4 f2 ec 3d 37 11 3b bd bd 99 0a bd
       -0.051630344 0.115697294 -0.045670714 -0.033838023
0000b0 c8 27 cd bd 62 ef d3 3d 8b f1 a5 3d 40 0a db bd
       -0.10017353 0.10348393 0.08102711 -0.106953144
0000c0 66 c0 1c bb 1a 5d 55 3d 74 90 67 3d 43 7f 98 bd
       -0.002391839 0.05209074 0.056534246 -0.07446148
0000d0 d2 d7 12 bb ba 75 53 3c a0 53 d0 bd e2 87 f0 bd
       -0.002240647 0.012906486 -0.101722 -0.117446676
0000e0 0a 35 0f 3d 1b f4 c0 bd 67 e4 f3 3c 9d af c0 bc
       0.03496269 -0.094215594 0.029771997 -0.023521239
0000f0 2a a0 a2 ba fb c5 16 3c 89 ea bc bb 1a 90 1f bd
       -0.0012407352 0.009202476 -0.0057652635 -0.038955785

g.4.weight f4 [1, 64]
000000 b9 1c c8 bc 20 7c 0c bd d0 68 0e 3c cd c1 e3 3d
       -0.024427759 -0.034298062 0.008691981 0.11120949
000010 b1 ca b2 3d 76 85 e4 bc 94 87 a5 3d a8 c8 62 3d
       0.087300666 -0.02789567 0.080825 0.055367142
000020 04 ac 80 3d c0 65 03 bd 33 f1 98 bd 16 fc 8a 3d
       0.062828094 -0.03207946 -0.0746788 0.06786363
000030 a7 fe 15 3d 7a eb f3 bd 50 2c 50 3d f5 d5 4e bd
       0.03661981 -0.11910148 0.05082351 -0.050497014
000040 56 cd be bc f2 d7 99 3c b0 4f 76 3d d0 39 e1 3c
       -0.023291271 0.018779729 0.06013459 0.027493387
000050 a9 19 9e bd f8 7b 2a bd 92 8f 93 bc 75 19 ba 3d
       -0.07719738 -0.041622132 -0.018012796 0.09086887
000060 ca c7 02 3d e5 1f eb 3d 1c 13 a5 3d b7 c6 3e bd
       0.031928815 0.11480693 0.080602854 -0.046576228
000070 03 d1 2a bd 64 65 35 bd 85 72 d8 3d 14 ce c2 3a
       -0.041703235 -0.044286147 0.10568718 0.0014862441
000080 67 ca e3 3d 0d cb 60 3d 8b dc 8a 3d 17 8b 53 3d
       0.111225896 0.054881144 0.067803465 0.05164632
000090 6f 19 85 bd e0 29 24 3d 52 c3 81 bd 49 7c 9d bd
       -0.06498992 0.040078998 -0.063360825 -0.07689721
0000a0 f2 7d ca 3d 6b b2 d8 bd c0 18 74 3d 84 9c 79 3d
       0.098873034 -0.105809055 0.059593916 0.06094028
0000b0 eb f3 b0 bc 4f 05 14 bc c3 64 1a 3d 0c 73 c8 bc
       -0.021600684 -0.009034469 0.03769375 -0.024468921
0000c0 32 64 f4 bd e8 8f 99 3d 7e c8 be 3c 43 1b 3f 3d
       -0.11933173 0.07498151 0.023288961 0.04665686
0000d0 40 16 84 3d 1e 23 a6 3d 0d 1c de 3c 50 ae b0 bd
       0.06449556 0.08112167 0.027112985 -0.086269975
0000e0 08 56 f0 3d d3 2b cf bd 91 95 4d 3c ff 9d 36 bd
       0.11735159 -0.10115781 0.012547866 -0.04458427
0000f0 3a bc c0 3d e2 60 92 3d 4a 58 7b bd 4c 4b ce 3d
       0.09410901 0.07147385 -0.061363496 0.100729555

h.0.weight f4 [64, 24]
000000 ab be 4b be 3f 26 e4 3d 47 39 27 bd 38 83 07 be
       -0.19896953 0.11140107 -0.04082611 -0.1323365
000010 13 d8 49 3e 18 06 4d 3e 9e 94 5d 3a 86 dc 3a be
       0.19711332 0.20021856 0.00084526266 -0.18248186
000020 e3 98 b3 ba d5 69 d2 3d c3 18 03 3d b4 7a 4f be
       -0.001370218 0.10274092 0.032006036 -0.20261651
000030 c7 c0 3f 3e 97 07 8d 3c 6a d4 5e bd d2 34 36 be
       0.18725882 0.017215533 -0.054401793 -0.17793587
000040 f9 bc d4 3d 9e fb b6 3d 8e f7 f5 3d d1 9d 05 3e
       0.10387606 0.08934711 0.12010108 0.13048483
000050 a6 c6 55 3d e5 5d 1f be ad 5e 17 be 33 d9 3f 3e
       0.0521914 -0.15563162 -0.1478221 0.18735199
000060 72 23 b2 3d 8a 09 35 be 81 0f 09 be 48 51 31 3e
       0.08698167 -0.1767942 -0.1338482 0.17316163
000070 73 ec bc bd 75 2c 8f 3d 8a 21 23 bd 71 c1 b3 3d
       -0.092247866 0.069909014 -0.039826907 0.087771304
000080 eb 3b 23 bd 79 57 82 3d c6 a7 ea bd 44 b3 18 3e
       -0.039852064 0.0636434 -0.114577815 0.14912134
000090 2d d3 b6 bd 6d 07 48 be 09 02 63 3d 66 58 a2 3d
       -0.08926997 -0.19534083 0.055421863 0.07927017
0000a0 c0 68 e2 bd 22 0f 83 bd 15 84 30 3e 66 e0 fc bc
       -0.11055136 -0.06399371 0.17237885 -0.03086872
0000b0 ed c8 f7 3d b5 6c 46 3e 09 36 d0 3d 74 d6 05 3e
       0.120988704 0.19377406 0.101665564 0.13070089
0000c0 99 43 13 be 79 d9 f4 bd db 0f 21 bd e4 db 3f bd
       -0.14381255 -0.11955542 -0.03932176 -0.046840563
0000d0 2c ee b8 bb 06 45 01 3e 07 c0 4a be 4d 31 09 3e
       -0.0056436267 0.12623987 -0.19799815 0.13397713
0000e0 71 5d 42 3e 03 c8 09 3e 15 01 1b 3e 4c 61 31 3e
       0.18980958 0.13455205 0.15137132 0.17322272
0000f0 e8 7c ff bc 80 7f 6e bd e9 f8 29 be 9a 74 1c 3e
       -0.03118749 -0.058227062 -0.16598858 0.15278855
000100 10 c1 4c 3d 81 2f 27 ba 52 d7 da bd d8 85 0a 3d
       0.049988806 -0.0006377623 -0.106856 0.03381905
000110 14 ae 00 be 86 ad 47 be 77 61 85 bd a0 a3 6b 3d
       -0.12566406 -0.19499788 -0.065127306 0.05752909
000120 92 5f 38 be e4 8b 39 3e bb e7 56 3d c2 54 cc bd
       -0.18005207 0.1811977 0.05246709 -0.09977104
000130 b7 16 f8 3b 44 d0 91 bd 22 57 10 3e 93 61 23 be
       0.007571067 -0.07119802 0.14095739 -0.1595519
000140 49 33 2c 3e 47 04 df bd ee 93 32 3e 20 67 0b be
       0.16816439 -0.10889488 0.17439243 -0.13613558
000150 83 46 26 be 7f 59 b5 bd 09 aa 8b bc e5 c1 a0 bd
       -0.16237836 -0.08854961 -0.017048853 -0.078494824
000160 75 cc 3f be 24 cb 31 be c3 c2 3d 3e 03 1d 47 be
       -0.18730338 -0.17362648 0.18531327 -0.19444661
000170 c7 c3 02 3d b4 71 3d be d0 0e 3d 3e a0 78 0a be
       0.03192499 -0.18500406 0.18462682 -0.13522577
000180 3e f9 3d 3e fa 62 26 3e 7b f5 35 be 2a a7 b7 bd
       0.1855211 0.16248694 -0.17769425 -0.08967431
000190 6d 9e 9e bd 02 0b e7 3d 89 23 05 bd 57 11 fa 3c
       -0.07745061 0.112813964 -0.032504592 0.030525846
0001a0 dc fa c6 bd db 58 41 bd 11 0f 1b 3e 87 d2 26 be
       -0.097158164 -0.04720388 0.15142466 -0.16291247
0001b0 fb b0 82 3c 08 f0 b8 3d 4d e6 a9 bc 52 57 8d 3d
       0.015953531 0.09030157 -0.020739699 0.06901421
0001c0 68 69 b8 bd 87 26 d3 bd a2 e9 1a 3e 19 3a b6 3b
       -0.0900448 -0.10310083 0.15128186 0.005561125
0001d0 d9 f8 d3 3d 3a 00 0c be 6d 2b 4c be 1e 61 ab bd
       0.10350198 -0.13671961 -0.1993844 -0.08368133
0001e0 a6 ef 47 3e ea 4e 1c 3e c1 28 36 3e e6 30 44 be
       0.19525012 0.15264478 0.17788984 -0.19159278
0001f0 5b cd 09 3e 95 9c fa bd fd 0f 13 3e 8b 23 1e bd
       0.13457243 -0.12236897 0.14361568 -0.038608115
000200 8b af 44 3e 2d bd ed bd 3d 4c 02 be 12 ba a5 bd
       0.1920759 -0.11608348 -0.12724395 -0.08092131
000210 31 d2 45 3c a1 ec b0 bc b8 2d 1a 3e 40 4c 18 3e
       0.012074039 -0.021597208 0.15056503 0.14872837
000220 45 68 46 bd e8 45 82 3d a9 f1 cd 3d e5 c3 9e 3d
       -0.048439283 0.0636099 0.10055859 0.07752208
000230 e2 cf ce bb d2 20 e8 bd c6 b5 11 3e 34 7e 49 3e
       -0.0063114027 -0.11334385 0.14229497 0.19677049
000240 17 05 cb bd 36 cd 34 3e 3d db 2e bc b5 6f fd 3c
       -0.0991308 0.17656407 -0.010672388 0.030937055
000250 2e 06 03 bd ba b6 e1 3b e5 1f 02 3d ce 94 da bd
       -0.031988315 0.006888238 0.0317687 -0.106729135
000260 62 2f 8a 3d 13 45 be 3d 07 25 22 3e ca ff 01 3e
       0.06747319 0.092905186 0.15834437 0.12695232
000270 d1 3d 96 bd 37 91 4a be e2 da 10 3d 96 0e e0 bc
       -0.07336009 -0.19781958 0.035364993 -0.027350705
000280 62 3b 39 3e 71 3a 3a 3e 0c 59 24 3e b6 49 45 3e
       0.18089059 0.18186356 0.16049594 0.192664
000290 9f aa 46 3d 86 6e f5 3c cb b6 17 be 0d 20 b9 bc
       0.04850256 0.029959928 -0.14815824 -0.02259829
0002a0 3d ee 59 3d 55 9e 4b be 71 1e e6 3d 4e 55 cf 3d
       0.053205717 -0.19884618 0.11236275 0.101236925
0002b0 29 d4 2d be 7b 3d 17 3d a0 1f cc 3d 80 61 3b 3e
       -0.16975464 0.036923867 0.099669695 0.18298912
0002c0 de 55 57 3d 1e a3 b5 bd a5 cf 05 3e ae 56 1a be
       0.052572124 -0.08869003 0.13067491 -0.15072128
0002d0 35 13 cd bd d1 96 22 3d 0e 03 d0 bd dd a4 f2 3d
       -0.10013429 0.03969461 -0.10156833 0.118478514
0002e0 e2 85 ae 3d c3 79 a4 bd 4e 1b 45 be fe 33 34 be
       0.0852163 -0.08031037 -0.19248697 -0.17597958
0002f0 c3 1c 42 3c 6e e1 3f 3c f9 d6 bf 3c 5f ef 31 be
       0.011847678 0.0117114615 0.023417937 -0.17376469
000300 ec 0b b1 3d 31 70 26 be 46 ad 22 3d cf a5 21 bd
       0.08644852 -0.16253735 0.039716028 -0.039464768
000310 24 47 d7 bd b1 95 a9 bd b9 d7 41 bd f7 b7 29 bd
       -0.10511616 -0.082805045 -0.04732487 -0.04143521
000320 fd 8f cb bd b1 93 3a be c5 6f 08 be ee 73 a1 3d
       -0.09939573 -0.18220402 -0.13323887 0.0788344
000330 c3 3f 05 3e 1e 71 18 be ad 35 01 be cb 11 94 bd
       0.13012604 -0.14886901 -0.12618132 -0.07229956
000340 10 d8 81 bd ef f5 ca 3b 30 62 94 3d b6 69 0d 3e
       -0.06340039 0.0061938684 0.0724529 0.13809857
000350 84 2d da bc 18 0b 09 be b4 c2 09 be 57 83 60 3d
       -0.026633032 -0.13383138 -0.1345318 0.054812755
000360 a3 e4 23 3d 39 b7 b5 bd 74 01 85 3b 04 9b 2d 3e
       0.040012967 -0.088728376 0.004059011 0.16953665
000370 18 33 42 3e 64 44 d3 bc 12 82 17 3e 78 25 49 b8
       0.18964803 -0.025789447 0.14795712 -4.795703e-05
000380 46 75 0e be e6 d2 33 3d 58 06 b8 3a 51 7e 0c 3d
       -0.13911924 0.0439023 0.0014039977 0.034300152
000390 73 72 07 be df 75 3e 3c b2 df 04 be 61 e7 49 3e
       -0.13227253 0.011624782 -0.12975958 0.1971717
0003a0 1d ce 0f be 1f c6 37 be d2 37 af 3d d5 10 69 3c
       -0.1404347 -0.17946671 0.08555569 0.0142252045
0003b0 46 f0 1f bd 2d 63 e5 3d 47 9b 28 3e 73 fa 3a 3e
       -0.039047502 0.11200557 0.16465484 0.18259601
0003c0 f8 83 ab bb f4 57 43 bb 92 76 01 3e 66 8c 55 3e
       -0.0052342378 -0.0029807063 0.12642887 0.20854339
0003d0 f1 b1 03 bd e1 7f 2c bd 45 a6 21 bc e4 cb 25 3d
       -0.03215212 -0.042114142 -0.009866302 0.04047765
0003e0 35 c1 f7 bd be 89 48 3e b7 e2 53 bc a1 bb b8 3d
       -0.12097398 0.19583794 -0.012932471 0.090201624
0003f0 31 7f 43 3e ed 66 c7 3d 27 f4 8a bd a6 ab 2e 3e
       0.19091488 0.097364284 -0.067848496 0.17057666

h.0.bias f4 [64]
000000 1c be 33 3e e9 02 20 bd f1 6b 98 bd 0f e8 45 be
       0.1755299 -0.039065275 -0.07442463 -0.19326805
000010 e9 c4 2a be 02 9d af 3c 0c 71 33 3e 31 82 34 bd
       -0.16676678 0.021437172 0.17523593 -0.044069473
000020 6c ff b0 bc 38 ad af bd ee 1e d3 3d 98 63 7a bd
       -0.02160617 -0.08577961 0.10308634 -0.061130136
000030 e2 6a 03 3e e4 61 b3 3d bc 1e d9 bd 79 5f 2c be
       0.12833741 0.087589055 -0.10601565 -0.16833295
000040 cb ab 0a 3d 24 86 9b 3d 71 a6 f1 bd a8 d4 2d 3e
       0.03385524 0.07593945 -0.11799324 0.16975653
000050 8e 85 aa 3d e0 bf 7e bd 1e 1a 91 3d f5 ab 44 be
       0.08326255 -0.062194705 0.070850596 -0.19206221
000060 58 6b 46 3e cc 0c a2 3d d5 2f eb 3d fe 6f a9 bd
       0.19376886 0.07912597 0.114837326 -0.08273314
000070 d7 05 10 bd d0 24 e6 3d b1 1c 9a bd c6 a9 10 be
       -0.03516182 0.1123749 -0.07525004 -0.14127263
000080 c5 d9 36 be 5f 87 1e bd 2a 39 a7 3c 0c 73 6f bd
       -0.1785651 -0.03870332 0.020413 -0.058459327
000090 b5 bf 2d be e0 ee 2d 3e 25 a9 65 3d a9 f0 e0 bd
       -0.16967662 0.16985655 0.056069512 -0.10983402
0000a0 59 03 85 bd ef 21 3c be bf e3 8a 3d 55 7b 51 be
       -0.06494779 -0.1837232 0.0678172 -0.20457204
0000b0 3c ab 8a bd 00 ca 23 be cf f6 1c be 5c a3 83 bd
       -0.067709416 -0.15995026 -0.15328525 -0.06427643
0000c0 67 32 cb 3d ad 7f 44 3e 8b 7d 06 3e b2 ba 9d 3c
       0.09921723 0.1918933 0.13133828 0.019254062
0000d0 45 14 3c bd 79 e3 85 3d 67 49 fa 3b e5 c6 16 be
       -0.045917768 0.065375276 0.007638145 -0.1472431
0000e0 e5 50 20 be 50 25 1e 3d f6 e0 d4 bd 0f b8 26 be
       -0.15655859 0.038609803 -0.103944704 -0.1628115
0000f0 e2 3a 16 3e ff 2d 2c bd 07 6e 1b be 8c 00 71 bd
       0.146709 -0.042036053 -0.15178691 -0.058838412

h.2.weight f4 [64, 64]
000000 ae 9c cf 3d 67 b2 d3 bd 6b e2 df 3d 78 71 ee 3c
       0.10137306 -0.10336762 0.10931858 0.02910684
000010 01 6b e5 bd 23 ea 75 bd 18 e1 45 3c 55 78 89 3d
       -0.1120205 -0.060037743 0.012077592 0.06712405
000020 2b ce fd bc 10 f8 a1 3d ad d0 4e 3d 71 21 8e 3d
       -0.030982098 0.07908642 0.050491977 0.06939972
000030 5b 99 8d bc d6 d0 09 bd 21 92 ce bd 37 a2 04 be
       -0.01728504 -0.033646427 -0.100864656 -0.12952505
000040 c2 00 b0 bd e8 53 8f bd 38 b9 70 3c f5 28 a3 3d
       -0.085938945 -0.06998426 0.014692597 0.07966796
000050 0c 52 af bc 7e 71 05 bd b8 93 23 bd 07 f1 da 3d
       -0.021401428 -0.032578938 -0.039935797 0.106905036
000060 bb d3 9e 3d 1a a7 e9 bd 55 de 84 3d be c8 fd bc
       0.07755228 -0.11408825 0.06487719 -0.03097951
000070 64 6e a3 bd 07 be 32 3d 01 2a 85 3d 96 3d ee 3d
       -0.0798004 0.043638255 0.06502152 0.1163284
000080 9d c8 49 bb 18 25 36 3d f0 5a 85 3b 40 b2 b7 3d
       -0.003078974 0.04446897 0.0040696785 0.08969545
000090 ed 5e bd bd 97 89 03 be 3d 08 01 3d eb 3c 55 3c
       -0.09246621 -0.12845455 0.031501997 0.013015012
0000a0 94 3f 30 3d f3 6f 86 3d d9 8b 01 bd 83 6e d5 bd
       0.043029383 0.06564321 -0.03162751 -0.10421469
0000b0 85 bf 41 bd 05 07 4c bc 3a 5d c6 bd 6e 0f 87 3c
       -0.047301788 -0.012452845 -0.0968575 0.01648685
0000c0 53 41 96 3d e3 b8 d8 bc a5 f6 2e 3d 43 11 5e 3d
       0.07336678 -0.026455348 0.042715687 0.05421568
0000d0 99 1f eb 3d 48 0d fa bb 38 c2 c1 bc ab fb eb 3b
       0.11480636 -0.007630978 -0.023652181 0.007201632
0000e0 73 d4 5b bd b7 dd ba 3d 2c a3 38 3b 99 19 e0 bd
       -0.053669404 0.0912432 0.002817343 -0.10942382
0000f0 f9 71 af bd af c4 6d bd 4a 8b 3c 3c d9 b1 a4 bc
       -0.085666604 -0.0580489 0.0115078185 -0.020104336
000100 45 e9 81 3d 3f ae b9 3d 72 ad c1 bc 5e 35 34 bc
       0.06343321 0.09066438 -0.023642275 -0.010999052
000110 1f 4e ee 3d 7d 9a d9 bc 8b 0c 90 3d 64 12 a8 bd
       0.11635994 -0.026562924 0.070336424 -0.08206633
000120 98 db 9b b7 d4 21 8d 3d 8b 02 ed bd a1 62 b9 bd
       -1.8579696e-05 0.06891218 -0.11572751 -0.09052015
000130 f2 13 19 bd 09 ec d4 bd c1 9c e8 3d 58 e7 68 ba
       -0.037372537 -0.10396583 0.113580234 -0.00088845706
000140 cb 48 32 3d 75 f1 02 be be 1b af bd 98 4c 37 bd
       0.043526452 -0.12787421 -0.08550213 -0.04475078
000150 8d 0b 9b bc ce e6 d6 bd ab 4b e5 3c ca ec 5f 3d
       -0.018926406 -0.10493241 0.027990183 0.05466918
000160 3f 67 01 be 8c b4 c5 bd 68 88 20 3c 83 f8 93 ba
       -0.12637042 -0.09653577 0.009798147 -0.0011289272
000170 4c 99 ad bd 72 49 a3 3d 50 c2 c4 bc 5c bc 92 3d
       -0.08476505 0.07972993 -0.024018437 0.07164833
000180 66 62 bd bd 5a c4 fc bc 5a 71 b3 bd f8 83 89 bc
       -0.09247284 -0.030855346 -0.087618545 -0.01678656
000190 5d 12 ae 3d c6 82 23 3d 17 20 fb bd 78 aa 32 3d
       0.08499596 0.039919637 -0.1226198 0.043619603
0001a0 c0 14 d4 bd b1 8d 91 bd 44 14 8f 3d 7c e8 9e 3d
       -0.1035552 -0.071071036 0.06986287 0.077591866
0001b0 12 59 8d 3d 97 34 6f 3c 0f 53 ef 3b eb 7f 9e bd
       0.069017544 0.014599941 0.0073036025 -0.07739242
0001c0 96 a6 e5 bd 86 c0 45 bd d4 69 ad bd 26 d4 df 3d
       -0.11213414 -0.048279308 -0.08467451 0.10929136
0001d0 71 52 14 3d e3 4d b1 3c d0 b9 47 3d 32 92 88 3d
       0.036211435 0.021643585 0.04876119 0.066685095
0001e0 49 1c 0e bc a4 19 0d 3d 6a de eb bd 6b f0 e0 3d
       -0.008673736 0.03444828 -0.115170315 0.10983356
0001f0 72 fb db 3d 0f 33 9a 3d 77 85 66 3d c3 83 6f 3d
       0.10741319 0.0752927 0.056279626 0.058475267
000200 26 99 3b 3d 8d ae 4f 3d 69 87 86 bb fc 93 5c 3c
       0.04580035 0.050703574 -0.0041054976 0.013463017
000210 3b 4e c9 bd 53 1e 83 bc d3 53 f8 3c 56 37 e2 bd
       -0.098293744 -0.01600567 0.030313408 -0.11045711
000220 9a 1d 4d bd 12 41 74 bb 99 23 ef 3d ae 62 03 3e
       -0.05007706 -0.003727023 0.116767116 0.12830612
000230 04 76 f3 3d 26 dd f2 3c d5 4e be bd 2c b1 a9 bd
       0.11887744 0.029646467 -0.0929238 -0.08285746
000240 80 2d 07 3d dc 55 d7 3c 1a 06 56 3d 88 43 f0 bd
       0.033002377 0.026286058 0.052251913 -0.117316306
000250 44 90 8c bd 60 4f 9d bd 9c 22 e1 3d c1 cc ef bd
       -0.06863454 -0.07681155 0.10992929 -0.117089756
000260 0c d7 66 bd 04 05 b9 3d de ce 7f bc 77 ab b4 bd
       -0.05635743 0.0903416 -0.015613286 -0.08821767
000270 12 21 af bd 5a 2b df 3c 63 4e db 3d c0 7f 92 3d
       -0.085512295 0.027242351 0.107083105 0.07153273
000280 78 c8 66 3d 61 db 68 bd 6a 4d eb 3c f5 af ab bd
       0.056343526 -0.05684984 0.028723437 -0.083831705
000290 5e db 91 bd 8a b7 67 bd 79 77 94 3d 15 35 1e bd
       -0.07121919 -0.05657152 0.0724935 -0.03862484
0002a0 d5 eb cf bd a2 6d a5 3d aa 62 1b bc 29 e7 df 3c
       -0.10152403 0.080775514 -0.009483973 0.027331905
0002b0 c1 e7 83 3d 18 5a e7 bb b8 11 42 3d f9 b8 bc 3d
       0.06440688 -0.0070603006 0.04738018 0.09214968
0002c0 59 61 e9 bc af 17 d4 3d 2d a1 1f 3d aa 42 38 3c
       -0.028488802 0.1035608 0.03897207 0.011246363
0002d0 1c 96 c4 bd fa 2a d3 3d 1d 70 01 3d 17 45 a9 3d
       -0.095989436 0.103109315 0.03160106 0.08265131
0002e0 4c 3a 9f 3c 57 5a 92 3d bc 0f d8 3d 9a d2 8c 3c
       0.019436978 0.07146137 0.10549876 0.017190266
0002f0 14 f2 a1 3c 0a d5 dc bd f4 c7 ba bc 3e cb a3 bd
       0.019768752 -0.107828215 -0.022800423 -0.0799775
000300 6c 31 cb 3d 65 a1 b0 3c 4b 4f ce bd 8b 59 1f bd
       0.09921536 0.021561334 -0.10073718 -0.038903754
000310 de 3f 3b bd 87 13 c6 3d 04 fd 83 3d 8b 39 3d 3d
       -0.045715205 0.09671693 0.06444743 0.046197455
000320 67 d6 af 3d 86 03 a6 bd 5b a3 42 3d 29 34 85 bd
       0.08585816 -0.08106141 0.04751907 -0.065040894
000330 1b fe c2 bc 35 8b 2a bd bb 5b 0c 3d c2 b0 f2 3d
       -0.023802808 -0.041636664 0.03426717 0.1185012
000340 5e 16 d3 3d e0 31 88 bd ca 32 c4 3d 78 ac 45 bd
       0.103070006 -0.06650138 0.0958 -0.048260182
000350 17 67 b5 bc 5d 83 6d bd 98 9e d8 bd d1 6d 3f bd
       -0.022143884 -0.057986606 -0.10577124 -0.04673559
000360 bd 78 f6 bc 6a 91 f6 bd 9e 14 62 3d f6 f2 ac bc
       -0.03008687 -0.12039454 0.055195443 -0.021111947
000370 65 71 da 3c b1 b3 dd bd 70 2f 50 3c a6 91 12 bd
       0.026665399 -0.10825289 0.0127066225 -0.035783432
000380 ea c7 be bd 49 d0 0f 3c 6b 59 e6 bd 18 c6 e3 bd
       -0.09315474 0.008777686 -0.11247524 -0.11121768
000390 10 5a 2b bd 22 d5 e5 3d 16 32 0d bd e9 9f dc bc
       -0.041833937 0.112222925 -0.034471594 -0.02693172
0003a0 31 53 9c 3c 3d b3 f0 3d 2d 7f f1 3d 6b 6f 33 bd
       0.019082638 0.11752937 0.11791835 -0.04380743
0003b0 a4 b1 9a bb e2 4d f1 bd a5 bc 45 bd 86 14 9a 3d
       -0.0047208834 -0.11782433 -0.04827561 0.07523446
0003c0 02 cd 02 be 38 ef d2 bd a4 b6 3a 3d 82 83 eb bd
       -0.12773517 -0.102995336 0.045584336 -0.114996925
0003d0 e7 21 67 bd 8f da d6 bd b4 8a f2 bd 00 79 10 bd
       -0.056428816 -0.104909055 -0.11842862 -0.035271645
0003e0 3c 00 ec 3c 1a 42 84 bd 55 2d 7c bd 1d 11 02 bd
       0.028808706 -0.0645792 -0.06156667 -0.0317546
0003f0 83 3b 56 bd 3f f9 db 3d 68 a0 93 3c a7 77 00 be
       -0.05230285 0.10740899 0.018020824 -0.12545644

h.2.bias f4 [64]
000000 7f b4 00 bd 35 50 3f 3d ce de bc 3d af 6f dc 3c
       -0.031422134 0.04670735 0.09222184 0.026908724
000010 3d 47 24 3d b2 e3 cf 3d 7b 93 cc 3c 96 c6 65 bd
       0.040107 0.10150851 0.024972668 -0.05609759
000020 48 43 e5 3d 65 29 bb 3d 1b 33 7f 3d 4f ad a6 bd
       0.111944735 0.09138755 0.062304597 -0.08138525
000030 97 fe 90 bc 0e 61 b8 3d 76 15 f0 3d 99 2c d2 3d
       -0.017699523 0.09002887 0.11722843 0.102624126
000040 a5 08 a2 3c aa 5e c3 3d c3 3f f6 3c 03 d5 fa 3d
       0.019779513 0.0953954 0.0300597 0.1224766
000050 7b 06 a5 3d ab ac 6d bc 02 a9 97 bd 5d 5a 87 bd
       0.08057877 -0.014506499 -0.074052826 -0.06609032
000060 80 96 b0 bd 48 e0 cd bd 64 fe 7d 3d 8d 93 66 bd
       -0.086224556 -0.10052544 0.062010184 -0.05629306
000070 4b ff d9 bd 5f a6 af bd f3 83 e3 bb 24 62 8f bc
       -0.106443964 -0.08576655 -0.00694322 -0.017502852
000080 93 80 6b bd a9 1b 0d 3d 13 0f dd bd f1 62 18 3d
       -0.057495665 0.034450207 -0.10793891 0.037203733
000090 56 db 3d 3a 1a 38 9e 3d 63 fc ef 3b ef 2f 90 bd
       0.00072424614 0.07725544 0.007323788 -0.070403926
0000a0 9f f5 33 bd 37 51 46 bc b1 27 15 3d 0f 9f a3 3d
       -0.043935414 -0.012104324 0.036414806 0.079893224
0000b0 67 77 bd bd a8 7a c5 bd cd e4 c5 bd 15 c0 aa 3d
       -0.0925129 -0.096425354 -0.09662781 0.08337418
0000c0 cb 25 18 3d 19 f9 68 3d 72 ef 80 3d 60 90 52 3c
       0.037145417 0.056878183 0.062956706 0.0128518045
0000d0 ab 5d dc 3d b6 77 35 3d 61 0e 63 bc 4e 60 ed 3d
       0.10760053 0.04430362 -0.013858409 0.11590634
0000e0 9d e1 d3 bd c8 21 9f 3c 71 98 c5 3d 25 48 34 3d
       -0.10345767 0.019425288 0.096482165 0.044014115
0000f0 d4 7e 9d bd 64 4b ec 3d 00 31 ad 3b dc 0f 8b bc
       -0.07690206 0.11537817 0.0052853823 -0.016975336

h.4.weight f4 [1, 64]
000000 c9 bf fa bc e3 4b c1 bd 86 63 2f 3c ec ea 52 bb
       -0.030609028 -0.09438302 0.010704881 -0.0032183481
000010 98 51 1b 3d 60 16 81 bd 5f 61 03 3c f4 7e f4 bd
       0.03791961 -0.06303096 0.008018821 -0.11938277
000020 b4 3f d0 3d 87 96 de 3c e9 a8 32 3d b4 d2 cd 3d
       0.101684004 0.027171386 0.043618117 0.10049954
000030 f2 3a e8 bc ae 81 50 3d ce 17 b1 3d ae 6b 81 bd
       -0.02834842 0.050904922 0.086471185 -0.063193664
000040 31 37 15 bd 16 6f 1f bd a1 ea 48 bd 21 c7 d3 3d
       -0.036429588 -0.0389243 -0.049051885 0.10340715
000050 f6 eb c6 3d 9a 30 4c b9 3a 78 eb bd 50 e9 47 3d
       0.09712975 -0.00019473062 -0.11497541 0.04880649
000060 c0 a1 be 3b 2e c1 c5 bd 61 d9 a5 bc 9b ae 4a bd
       0.005817622 -0.09655987 -0.020245256 -0.049482923
000070 3e 9d 46 3d 19 fa 98 3d bf 52 68 bb 6a 25 f2 bd
       0.0484898 0.07469577 -0.003544971 -0.118235424
000080 cf 5d af 3d 5e d1 c7 bc 57 e8 a3 3d 16 24 3a 3b
       0.085628144 -0.024391826 0.080033 0.0028402857
000090 f9 f0 eb 3c 91 c4 dc bd 64 95 cc bd d2 97 b5 3c
       0.028801428 -0.107796796 -0.099894315 0.02216712
0000a0 92 77 27 bd f8 df 1f 3d 41 fc c0 bb 86 83 b5 bd
       -0.040885516 0.039031953 -0.005889446 -0.08862977
0000b0 f9 c2 36 bc 9c 15 48 bd 1d 10 8f 3d 06 bb 5f 3d
       -0.011154884 -0.048848733 0.06985495 0.05462172
0000c0 58 fb ad bc 27 e1 aa 3d 1b f9 a1 bb df e3 04 3e
       -0.021238014 0.08343726 -0.0049430258 0.12977551
0000d0 34 83 85 3d 30 e0 52 3d a7 82 67 3d 96 8d 99 3d
       0.06519166 0.051483333 0.056521084 0.074977085
0000e0 3c 21 cd bd c7 e5 fd 3d 1f 30 ad 3d ca cd a7 3c
       -0.100161046 0.12397342 0.08456444 0.02048387
0000f0 c8 2d 05 3d d2 30 63 bc 0e 3b 66 3c f7 43 17 bc
       0.032514364 -0.01386662 0.014052166 -0.009232513
