models_airl/2022-06-07_17-20/step_8192_reward_0/disc.pt (torch, 53851 bytes, 10 tensors)

g.0.weight f4 [64, 36]
0.079314835 -0.080862105 -0.039683152 0.07084764 -0.1620886 0.09469791 -0.04175682 0.07751618
0.016607124 -0.026964488 0.038113795 0.0018317378 0.053151686 -0.071623914 -0.018936709 -0.022055726
0.017840277 -0.0051915646 0.13849187 0.04463893 -0.06978738 -0.10719864 -0.03504703 -0.07828034
-0.06122623 0.001917025 0.09227553 0.08323166 -0.16901587 0.09641412 0.03828068 0.15117267
0.10361503 -0.15908782 -0.1637917 -0.08699765 0.14683744 -0.025274783 0.0695015 -0.07136429
0.16330233 -0.068361536 0.12474516 0.0063612093 -0.08731742 0.08745236 -0.08662969 0.047367055
-0.03986068 -0.021707114 -0.15492168 -0.07415339 0.090512 -0.031015962 0.16600005 0.1364937
0.00046158777 -0.113685794 0.102853626 0.050075788 -0.109710075 0.113160305 0.10265511 0.14938164
-0.09267046 -0.026154667 -0.00062717375 0.023754943 -0.1256772 -0.11617444 0.09360595 -0.039702237
0.08323399 0.012512522 0.06295888 0.047549196 0.05573256 0.08758546 -0.14707209 0.09591895
-0.11536545 -0.11512816 0.020684224 -0.03482294 0.10517082 -0.09126433 -0.14008479 0.13230573
-0.014089445 0.094717026 0.05101161 -0.11307138 0.040766526 0.045726784 -0.09971046 -0.08550044
0.054739155 0.040387753 -0.07182653 -0.04069129 0.15925469 -0.022156877 0.09982951 0.07931911
-0.10378329 -0.13197818 0.16710941 0.017584143 0.121166326 0.045879357 0.06352588 0.11488385
0.16988415 -0.107562624 0.032475084 0.11543777 0.12766248 0.09821294 -0.10985569 -0.10931513
-0.10856417 0.03102131 0.17827113 -0.101781815 0.08844656 -0.092315584 -0.14501236 -0.03512999
0.08825959 0.16657738 -0.09981556 0.046870783 0.1528617 0.11193044 0.113543466 0.1125857
0.10943313 0.052609615 -0.113604926 -0.13060278 -0.07210359 -0.009908984 -0.110486 0.07180336
0.0425604 -0.046349138 0.05426549 0.04413628 0.09200873 0.10431083 -0.06561942 0.1536075
-0.028288858 -0.015349706 -0.16587009 -0.11468677 -0.10574703 -0.08001421 0.1081608 -0.06314025
-0.1309061 0.063120425 0.04355776 0.09898771 -0.09462514 0.02665669 -0.06993495 -0.044863187
-0.14306036 -0.08415488 -0.05944505 0.061760005 0.021406433 0.032044467 0.15637048 0.15438958
0.10519936 -0.0038309118 -0.122883275 0.1207974 -0.029114155 -0.006884653 -0.13780497 -0.03639021
-0.09617416 0.15941903 -0.13690622 -0.12412519 0.006903692 -0.07805053 0.061908804 -0.05481297
-0.07377528 0.019976895 0.12954041 -0.120890886 0.08411139 0.10642034 0.17384233 -0.11762221
0.044870965 -0.11527248 0.1515598 -0.05530976 0.103754625 0.009973812 -0.003584692 0.0031729212
0.038886484 0.08331115 0.034067433 0.057963938 -0.14480138 0.12238039 0.1569398 0.14846776
0.13550821 -0.10920575 -0.052421454 0.15884931 -0.115033805 0.16099043 -0.119677156 -0.10506385
0.09378407 -0.10899202 -0.02646864 0.13345064 0.14392501 0.16955967 -0.022691103 -0.11957058
0.17647313 -0.029194236 -0.056508597 0.052556444 -0.104643926 0.1213349 0.117024295 -0.120044924
-0.12428206 -0.0037711887 0.081460625 0.007414275 -0.073899515 0.015209045 -0.14411479 -0.107338265
-0.10045516 0.14946538 0.15790878 -0.04565847 0.020572852 0.087401584 0.032847844 -0.070729315
00000000: d16f a23d 089b a5bd cd8a 22bd 9118 913d
00000010: 8efa 25be faf0 c13d 3309 2bbd cec0 9e3d
00000020: aa0b 883c a1e4 dcbc 361d 1c3d ec16 f03a
00000030: 95b5 593d 8faf 92bd 2821 9bbc 36ae b4bc
00000040: c625 923c 001e aabb d0d0 0d3e 50d7 363d
00000050: b0ec 8ebd f68a dbbd 798d 0fbd 7151 a0bd
00000060: 5bc8 7abd af44 fb3a f4fa bc3d 5c75 aa3d
00000070: 7f12 2dbe c474 c53d 34cc 1c3d 02cd 1a3e
00000080: 1e34 d43d ebe7 22be 03b9 27be d32b b2bd
00000090: 8e5c 163e 100d cfbc cd56 8e3d 7127 92bd
000000a0: ba38 273e 2201 8cbd 647a ff3d b171 d03b
000000b0: 7ad3 b2bd 391a b33d e86a b1bd f503 423d
000000c0: f444 23bd 1ed3 b1bc caa3 1ebe bcdd 97bd
000000d0: 5b5e b93d 3015 febc ebfb 293e 01c5 0b3e
000000e0: 4301 f239 19d4 e8bd eca4 d23d 451c 4d3d
000000f0: adaf e0bd 97c0 e73d d83c d23d 80f7 183e
00000100: 03ca bdbd 5042 d6bc eb68 24ba ba99 c23c
00000110: 86b1 00be ddec edbd 7ab4 bf3d d09e 22bd
00000120: 9576 aa3d 5201 4d3c 96f0 803d f2c2 423d
00000130: d347 643d 0160 b33d 119a 16be 2871 c43d
00000140: b944 ecbd 50c8 ebbd f671 a93c 80a2 0ebd
00000150: cd63 d73d cbe8 babd 6372 0fbe 277b 073e
00000160: 6ad7 66bc 00fb c13d 8df1 503d f891 e7bd
00000170: cdfa 263d 024c 3b3d ff34 ccbd db1a afbd
00000180: 2a36 603d a16d 253d ca19 93bd e9ab 26bd
00000190: a913 233e 5782 b5bc 6a73 cc3d 0f72 a23d
000001a0: 558c d4bd 4a25 07be bb1e 2b3e 9f0c 903c
000001b0: 0d26 f83d feeb 3b3d db19 823d 3948 eb3d
000001c0: 1cf6 2d3e cb49 dcbd 9804 053d a36a ec3d
000001d0: f4b9 023e de23 c93d 05fc e0bd 9ce0 dfbd
000001e0: e456 debd 6720 fe3c b58c 363e fc72 d0bd
000001f0: 7823 b53d f40f bdbd 1f7e 14be 77e4 0fbd
00000200: 72c1 b43d 4393 2a3e 1a6c ccbd 94fb 3f3d
00000210: c787 1c3e c93b e53d 7a89 e83d 5593 e63d
00000220: 7a1e e03d 2e7d 573d b3a9 e8bd bcbc 05be
00000230: 0cab 93bd 4b59 22bc 7c46 e2bd a40d 933d
00000240: d053 2e3d 98d8 3dbd 7e45 5e3d 3ec8 343d
00000250: 136f bc3d eba0 d53d 7963 86bd 494b 1d3e
00000260: 09be e7bc 557d 7bbc d9d9 29be e6e0 eabd
00000270: e691 d8bd 7dde a3bd 6983 dd3d ad4f 81bd
00000280: 400c 06be 4845 813d 9f69 323d 12ba ca3d
00000290: d3ca c1bd 215f da3c 0e3a 8fbd 76c2 37bd
000002a0: 6a7e 12be 6559 acbd a77c 73bd 0ff8 7c3d
000002b0: 8b5c af3c 0f41 033d 951f 203e 4d18 1e3e
000002c0: c372 d73d 0910 7bbb 3aaa fbbd a164 f73d
000002d0: cf80 eebc a898 e1bb bf1c 0dbe e70d 15bd
000002e0: f5f6 c4bd be3e 233e 2531 0cbe 5935 febd
000002f0: 5e38 e23b f5d8 9fbd 1694 7d3d 9183 60bd
00000300: 7e17 97bd 96a6 a33c 3ea6 043e a495 f7bd
00000310: 9842 ac3d e8f2 d93d b903 323e eae3 f0bd
00000320: 9eca 373d fa13 ecbd 7e32 1b3e 7d8c 62bd
00000330: 4e7d d43d 3369 233c 27ed 6abb c9f0 4f3b
00000340: 6f47 1f3d 099f aa3d 4b8a 0b3d 986b 6d3d
00000350: d046 14be 92a2 fa3d d4b4 203e ef07 183e
00000360: aac2 0a3e 44a7 dfbd e1b7 56bd 65a9 223e
00000370: d896 ebbd adda 243e 4c19 f5bd b72b d7bd
00000380: dd11 c03d 3537 dfbd c3d4 d8bc 49a7 083e
00000390: 1461 133e 0da1 2d3e b1e2 b9bc 6ce1 f4bd
000003a0: 5fb5 343e c028 efbc 8f75 67bd 6d45 573d
000003b0: 8e4f d6bd 6f7e f83d 6faa ef3d 1dda f5bd
000003c0: 9887 febd 0c26 77bb d4d4 a63d 72f3 f23b
000003d0: a158 97bd 5c2f 793c d492 13be 2ad4 dbbd
000003e0: 6fbb cdbd 740d 193e d7b2 213e 6004 3bbd
000003f0: 6688 a83c 9aff b23d 768b 063d 88da 90bd

g.0.bias f4 [64]
-0.023863802 0.0767392 0.12616467 0.013424064 -0.099548444 -0.11976122 -0.11371059 0.14738764
-0.15533808 -0.052490015 0.078450404 0.10420843 -0.15616895 0.044277783 0.015452303 0.16648084
-0.0074400203 0.0832857 -0.0009022524 0.13921374 -0.026777256 -0.08516702 0.043631695 -0.094475985
0.054348286 0.104347266 -0.13201973 -0.10853969 0.015763853 -0.02086133 -0.061727908 0.15230493
0.08789629 -0.04276899 0.033367734 -0.0119661 -0.116806276 0.08059562 -0.09733855 0.022766842
0.12632322 -0.15983498 0.004615151 0.16734536 0.06522518 -0.052297674 0.039708786 -0.14338347
0.038798045 0.15777493 0.13358401 0.005998515 0.052543562 -0.037332535 -0.033334646 0.016883219
-0.10678833 0.08067498 0.09467247 -0.037284818 -0.031320028 -0.10755689 0.020672293 0.07972147
00000000: 057e c3bc 7129 9d3d 5031 013e 9bf0 5b3c
00000010: 0ee0 cbbd 5f45 f5bd 19e1 e8bd c9ec 163e
00000020: f210 1fbe c5ff 56bd 9baa a03d 3b6b d53d
00000030: c1ea 1fbe 9f5c 353d a82b 7d3c f479 2a3e
00000040: 6acb f3bb b191 aa3d 2285 6cba 0c8e 0e3e
00000050: fa5b dbbc 0c6c aebd 26b7 323d a07c c1bd
00000060: 4f9c 5e3d 05b4 d53d 2e30 07be 0f4a debd
00000070: 3223 813c 61e5 aabc 67d6 7cbd d3f5 1b3e
00000080: f802 b43d 892e 2fbd 9bac 083d 760d 44bc
00000090: 2138 efbd 510f a53d 6f59 c7bd 8781 ba3c
000000a0: e05a 013e c8ab 23be b13a 973b 955c 2b3e
000000b0: c794 853d 1636 56bd aea5 223d 1ed3 12be
000000c0: b3ea 1e3d c08f 213e 3fca 083e 318f c43b
000000d0: eb37 573d 00ea 18bd e989 08bd ad4e 8a3c
000000e0: d7b3 dabd ed38 a53d a4e3 c13d f7b7 18bd
000000f0: 6e49 00bd c946 dcbd f158 a93c 0345 a33d

g.2.weight f4 [64, 64]
0.13106331 -0.10456843 -0.091731645 0.016785366 0.12802263 0.021251597 0.04740286 0.03133676
-0.0044819675 0.10225665 0.10447404 -0.05866384 -0.061643705 -0.083523214 -0.018924719 0.010897113
0.11803526 -0.10742753 0.10204603 -0.056895945 0.023294164 0.006766503 0.08435861 -0.09398462
-0.07371195 0.015863206 0.07558124 -0.04652108 0.05210894 -0.02058608 -0.1039025 0.027938895
-0.01306424 0.087259926 0.09538856 0.09541749 0.09008615 -0.08322282 -0.10640123 0.027299875
0.049794093 -0.08848577 0.11481065 0.0005481388 -0.059932612 0.099090435 0.12272798 0.03242954
-0.026533552 0.02729341 -0.078765966 0.09013702 0.0911916 -0.012790615 -0.08571249 0.106557466
-0.09040245 -0.051853113 0.08807755 -0.048402213 0.03650564 0.11587892 -0.0022756415 -0.014756804
0.12388632 0.03320696 0.05392801 -0.029942535 -0.098566405 0.027052283 -0.0649053 -0.053338364
-0.09460308 0.11631714 -0.07378102 0.04679547 0.036785733 0.098491125 0.074591175 -0.07697139
0.06708685 -0.05179555 0.01295969 -0.034229327 -0.09669448 0.04077321 -0.07130307 0.12357483
0.06241937 -0.032291476 -0.06687298 -0.10427165 -0.05540794 -0.0714286 0.023898192 0.040776175
0.1206655 0.028027898 -0.016411252 -0.0440304 -0.01224884 0.07793323 -0.110861264 -0.10613598
0.05886242 -0.038561806 -0.026800307 -0.06841874 -0.071585864 -0.08153441 -0.067800835 -0.10768504
-0.048154894 0.112378635 -0.060805056 0.10501099 -0.09607735 0.020783896 0.0011530429 -0.083410665
0.01249532 0.11538743 -0.04603766 0.12173896 -0.0061531477 -0.030158842 0.07325155 0.10922254
0.10219062 0.067618996 -0.115792744 -0.030573579 0.010362311 -0.062022272 0.05596824 -0.034320924
-0.11030503 -0.0604925 -0.08505552 0.042134497 -0.09601328 -0.036915652 0.010223094 0.051781513
-0.10107168 0.07953172 -0.08485663 -0.10166743 0.044587206 -0.07713265 0.08401572 0.051153276
-0.06520296 -0.03238865 -0.06106863 -0.016980007 -0.0049904655 -0.007904462 -0.08743401 -0.11033333
-0.08586579 0.015423523 0.006224997 -0.06991333 -0.022191584 -0.0082742 0.08377153 -0.1182525
-0.060781863 -0.017037924 -0.024990737 -0.07177387 0.05603591 -0.052449584 0.009089809 -0.07387204
0.11840743 -0.079922624 -0.032454304 0.09622246 0.061674137 -0.114143506 0.074849084 -0.07315051
-0.01844731 0.044454623 0.0024139453 0.09003015 -0.04948978 -0.09374591 0.0023903807 0.04000278
0.087675944 -0.070150025 -0.022278849 -0.07678004 -0.09475011 -0.10313968 -0.08684653 -0.082342826
0.037886426 -0.021345248 0.07417469 0.08931838 -0.10228485 0.016743464 0.061716825 -0.10649448
-0.043863777 0.08276822 -0.09794969 0.107306324 0.0037163943 0.018868824 0.096638024 -0.11694277
0.09902055 -0.11730921 0.056944784 -0.011370933 0.091635555 -0.008445014 -0.12769191 0.009647367
0.075320125 -0.03002932 -0.12406951 -0.02560963 0.013372921 0.023516811 0.033671066 -0.021848869
-0.0121127 -0.025664834 0.042407922 0.020333767 0.043897633 -0.01768971 -0.017710026 0.08617661
0.008338409 -0.12154019 0.018733082 0.11241355 -0.029838542 0.0706005 -0.09630091 -0.026218211
0.081497334 -0.06865654 -0.036770493 -0.002677896 -0.022901356 -0.03884757 0.07932246 -0.028805707
00000000: 7635 063e f927 d6bd cddd bbbd 7781 893c
00000010: 5d18 033e d417 ae3c 8029 423d f95a 003d
00000020: 78dd 92bb ef6b d13d 7cf6 d53d 7f49 70bd
00000030: 1c7e 7cbd 380e abbd 0308 9bbc ce89 323c
00000040: 78bc f13d f702 dcbd 82fd d03d b90b 69bd
00000050: 67d3 be3c 8bb9 dd3b 35c4 ac3d 027b c0bd
00000060: 4af6 96bd 8ef3 813c 56ca 9a3d e38c 3ebd
00000070: 2f70 553d 24a4 a8bc d5ca d4bd 1ce0 e43c
00000080: 650b 56bc 55b5 b23d 145b c33d 3f6a c33d
00000090: 167f b83d ba70 aabd e3e8 d9bd fda3 df3c
000000a0: e4f4 4b3d 0738 b5bd d921 eb3d f9b0 0f3a
000000b0: e67b 75bd edef ca3d cf58 fb3d d6d4 043d
000000c0: e45c d9bc 6e96 df3c 0d50 a1bd c299 b83d
000000d0: a9c2 ba3d ba8f 51bc 088a afbd cd3a da3d
000000e0: eb24 b9bd ee63 54bd 0162 b43d 6641 46bd
000000f0: f086 153d ed51 ed3d ee22 15bb 86c6 71bc
00000100: 1cb8 fd3d 0504 083d 9ee3 5c3d 0c4a f5bc
00000110: 2fdd c9bd c09c dd3c 12ed 84bd 5479 5abd
00000120: 42bf c1bd ae37 ee3d 811a 97bd 9bac 3f3d
00000130: a3ac 163d b7b5 c93d 42c3 983d 2da3 9dbd
00000140: d564 893d 9227 54bd e154 543c 0d34 0cbd
00000150: c107 c6bd cf01 273d 5807 92bd cd14 fd3d
00000160: 74ab 7f3d 1144 04bd b3f4 88bd 608c d5bd
00000170: 70f3 62bd 2849 92bd 24c6 c33c eb04 273d
00000180: 791f f73d c39a e53c e470 86bc 3959 34bd
00000190: 5caf 48bc 759b 9f3d 3b0b e3bd d25d d9bd
000001a0: b919 713d fcf2 1dbd 518c dbbc 201f 8cbd
000001b0: 9c9b 92bd 83fb a6bd 2adb 8abd f989 dcbd
000001c0: 113e 45bd c526 e63d b90e 79bd 0010 d73d
000001d0: 34c4 c4bd fd42 aa3c b321 973a 36d3 aabd
000001e0: 2cb9 4c3c 3f50 ec3d fc91 3cbd 4752 f93d
000001f0: 58a0 c9bb ad0f f7bc e904 963d 11b0 df3d
00000200: 5149 d13d d47b 8a3d bf24 edbd 7175 fabc
00000210: afc6 293c 110b 7ebd f43e 653d 1994 0cbd
00000220: 9be7 e1bd fcc6 77bd 9731 aebd 3995 2c3d
00000230: 9ca2 c4bd de34 17bd c47e 273c da18 543d
00000240: abfe cebd 87e1 a23d 50c9 adbd 0337 d0bd
00000250: 13a1 363d b9f7 9dbd 6f10 ac3d 1986 513d
00000260: 2189 85bd f6a9 04bd 1a23 7abd a819 8bbc
00000270: 0f87 a3bb b781 01bc 9a10 b3bd 71f6 e1bd
00000280: 67da afbd f2b2 7c3c 0ffb cb3b b82e 8fbd
00000290: 20cb b5bc 8390 07bc 6890 ab3d 5e2e f2bd
000002a0: 67f6 78bd 1e93 8bbc 60b9 ccbc 2efe 92bd
000002b0: e985 653d 60d5 56bd 6ced 143c 394a 97bd
000002c0: 987f f23d 79ae a3bd ceee 04bd 4810 c53d
000002d0: 059e 7c3d 12c4 e9bd 7a4a 993d efcf 95bd
000002e0: d01e 97bc 0d16 363d 4833 1e3b ba61 b83d
000002f0: ccb5 4abd dbfd bfbd efa7 1c3b f4d9 233d
00000300: 728f b33d d1aa 8fbd 2282 b6bc db3e 9dbd
00000310: 580c c2bd e63a d3bd 98dc b1bd 5ba3 a8bd
00000320: cc2e 1b3d 3bdc aebc e6e8 973d 8eec b63d
00000330: b87a d1bd 9729 893c c8ca 7c3d c719 dabd
00000340: 81aa 33bd 6282 a93d d999 c8bd 6bc3 db3d
00000350: c08e 733b cb92 9a3c 28ea c53d b17f efbd
00000360: 49cb ca3d d03f f0bd ef3e 693d 264d 3abc
00000370: 6cab bb3d f55c 0abc abc1 02be fd0f 1e3c
00000380: 7041 9a3d 0c00 f6bc 2818 febd 49cb d1bc
00000390: 191a 5b3c 54a6 c03c acea 093d 66fc b2bc
000003a0: 5974 46bc 0f3f d2bc eeb3 2d3d 0093 a63c
000003b0: 01ce 333d 03ea 90bc 9e14 91bc 5d7d b03d
000003c0: d29d 083c 10ea f8bd 1f76 993c 1339 e63d
000003d0: f56f f4bc ff96 903d 6939 c5bd 93c7 d6bc
000003e0: 13e8 a63d cd9b 8cbd a89c 16bd a47f 2fbb
000003f0: a09b bbbc a11e 1fbd d073 a23d f2f9 ebbc

g.2.bias f4 [64]
-0.016603151 -0.026346391 -0.057520874 -0.11507465 -0.056144655 -0.0036203358 -0.107065104 -0.105246894
0.09467669 0.093581446 -0.08639535 -0.08697065 0.036271572 0.044823796 -0.0912343 -0.011122933
-0.079689376 -0.014203561 -0.08591151 -0.027106587 0.0059709135 -0.061473545 0.11658458 -0.03141202
0.05356802 0.009146296 -0.06414151 0.08087089 0.0017074586 -0.044075556 -0.017434986 -0.10524826
-0.029469643 0.023141377 0.07571529 -0.06734469 -0.10415959 -0.074372664 -0.04773501 0.016109388
-0.05456759 0.12167382 -0.0508034 -0.037033517 -0.09265616 0.11072784 0.07650883 -0.10026435
0.0036560043 0.049322214 0.051861066 -0.07873452 -0.0049834643 0.0073056356 -0.10537066 -0.117446676
0.030830873 -0.0878939 0.026339753 -0.016525652 -0.005778493 0.0038218528 0.001184926 -0.043198816
00000000: 5503 88bc 63d4 d7bc 029b 6bbd 42ac ebbd
00000010: f0f7 65bd 2843 6dbb f344 dbbd af8b d7bd
00000020: dae5 c13d a1a7 bf3d 0cf0 b0bd ab1d b2bd
00000030: 8091 143d 2899 373d 0cd9 babd f63c 36bc
00000040: 2f34 a3bd 0db6 68bc 60f2 afbd a20e debc
00000050: a7a7 c33b afcb 7bbd e5c3 ee3d e4a9 00bd
00000060: 246a 5b3d 59da 153c a05c 83bd a39f a53d
00000070: cecc df3a 9288 34bd d1d3 8ebc 668c d7bd
00000080: 526a f1bc fc92 bd3c 9e10 9b3d 03ec 89bd
00000090: a051 d5bd b250 98bd c985 43bd d6f7 833c
000000a0: 4482 5fbd 2030 f93d 3a17 50bd 75b0 17bd
000000b0: 83c2 bdbd 47c5 e23d a9b0 9c3d 6557 cdbd
000000c0: 9399 6f3b 1706 4a3d 456c 543d 903f a1bd
000000d0: 544c a3bb 1d64 ef3b 93cc d7bd e287 f0bd
000000e0: 0791 fc3c b801 b4bd 77c6 d73c ce60 87bc
000000f0: 8359 bdbb 0d78 7a3b 854f 9b3a 3ef1 30bd

g.4.weight f4 [1, 64]
-0.031746507 -0.04149796 0.007085723 0.109084226 0.08307287 -0.03455467 0.07880971 0.053312697
0.058554344 -0.038413983 -0.08235638 0.06501305 0.03287953 -0.12656608 0.04824363 -0.052986976
-0.030427994 0.015230425 0.06013459 0.0248264 -0.08439308 -0.048754152 -0.024936894 0.088052616
0.027361754 0.111471206 0.07788476 -0.053596288 -0.048715483 -0.051989708 0.10546749 -0.0026703961
0.10928743 0.052781943 0.06460223 0.047850247 -0.072449416 0.037126563 -0.07031116 -0.084311716
0.09721684 -0.11235124 0.05479872 0.057789534 -0.02909837 -0.015621646 0.033445552 -0.03132346
-0.12590325 0.07240103 0.0187043 0.04235633 0.061895113 0.07602126 0.024142494 -0.086269975
0.11374922 -0.108258754 0.009073808 -0.051932976 0.09020903 0.06644083 -0.0688533 0.09699195
00000000: a008 02bd c4f9 29bd 5a2f e83b 8d67 df3d
00000010: 1c22 aa3d 3389 0dbd fc66 a13d 6a5e 5a3d
00000020: aed6 6f3d fb57 1dbd 76aa a8bd 9025 853d
00000030: b0ac 063d 8a9a 01be 1d9b 453d df08 59bd
00000040: 2144 f9bc 0889 793c b04f 763d bc60 cb3c
00000050: 47d6 acbd 6fb2 47bd 7548 ccbc ee54 b43d
00000060: c225 e03c 044b e43d 0c82 9f3d c887 5bbd
00000070: e389 47bd 29f3 54bd 57ff d73d d001 2fbb
00000080: 17d2 df3d e131 583d 2d4e 843d 9ffe 433d
00000090: 5c60 94bd 0612 183d 4cff 8fbd 9fab acbd
000000a0: 9f19 c73d 6818 e6bd 9f74 603d b8b4 6c3d
000000b0: b45f eebc eff1 7fbc 34fe 083d 074d 00bd
000000c0: c8ec 00be fe46 943d c339 993c d57d 2d3d
000000d0: bb85 7d3d 09b1 9b3d 7bc6 c53c 50ae b0bd
000000e0: 5af5 e83d c4b6 ddbd 4faa 143c acb7 54bd
000000f0: 83bf b83d 2112 883d f502 8dbd b7a3 c63d

h.0.weight f4 [64, 24]
-0.1988633 0.10842069 -0.04420944 -0.13463567 0.19598596 0.20127252 -0.0031352108 -0.18107978
-0.0012640102 0.09882554 0.03146055 -0.20503072 0.1837621 0.01793759 -0.051819693 -0.18068135
0.10147584 0.09040419 0.12110018 0.12629604 0.04869468 -0.15227473 -0.15019563 0.18493778
0.09290168 -0.17058991 -0.12782076 0.17857292 -0.08621995 0.068621926 -0.0332029 0.09346811
-0.033932053 0.06951162 -0.108420916 0.1554406 -0.08361632 -0.18966027 0.061125826 0.085302986
-0.10455512 -0.06391495 0.17826916 -0.02486168 0.12664233 0.19973496 0.10759517 0.13702014
-0.13781393 -0.113494486 -0.03932176 -0.041465726 -7.220486e-05 0.12639621 -0.19799815 0.14029735
0.1958082 0.14001785 0.15749682 0.17951363 -0.02609505 -0.051916964 -0.16598858 0.15838349
0.056000516 0.0001863235 -0.1019681 0.039841343 -0.120571606 -0.18905118 -0.05910525 0.063820004
-0.1758683 0.18448804 0.05660385 -0.10091569 0.013571198 -0.0709892 0.14619964 -0.16259071
0.17234816 -0.10401767 0.17637436 -0.13615526 -0.16080834 -0.08895701 -0.011361725 -0.07543203
-0.18570496 -0.17380309 0.18978225 -0.19229555 0.03349501 -0.18448506 0.19007736 -0.13524546
0.1858431 0.16142313 -0.17435661 -0.086460575 -0.07771525 0.11422713 -0.032478638 0.030064752
-0.09683618 -0.04426736 0.14993209 -0.16240719 0.01888889 0.092525735 -0.023255935 0.06267664
-0.08732537 -0.10160791 0.15427911 -0.0009390428 0.106437355 -0.14139777 -0.20430951 -0.08317608
0.20182036 0.15909971 0.1835461 -0.18763308 0.14085409 -0.1223929 0.14981304 -0.031926725
0.19864611 -0.11007865 -0.12082763 -0.07437533 0.018680532 -0.01479748 0.15672207 0.15432325
-0.0419637 0.06483306 0.107368864 0.0835148 0.00029509026 -0.1068285 0.14831115 0.20331642
-0.0929716 0.18353385 -0.0048225704 0.033875 -0.025277723 0.007293462 0.03813082 -0.09984597
0.07363239 0.099411026 0.16530812 0.13401125 -0.06738212 -0.19068755 0.041553993 -0.021261541
0.1872041 0.18243356 0.1674847 0.19903454 0.054480534 0.037169896 -0.14156838 -0.015539311
0.04978281 -0.20340689 0.108807676 0.100182205 -0.17303273 0.036766693 0.09596224 0.17912343
0.049149215 -0.09183724 0.12668507 -0.15072128 -0.10281343 0.037525006 -0.10249933 0.11335965
0.08389212 -0.08022829 -0.19397248 -0.18047717 0.009168553 0.008636357 0.019385615 -0.17376469
0.08877377 -0.16253735 0.045449663 -0.03642733 -0.10353952 -0.08363693 -0.041698586 -0.03959237
-0.09707048 -0.17768474 -0.12871242 0.08115965 0.13410868 -0.14886901 -0.12618132 -0.07229956
-0.061411124 0.007356985 0.07494833 0.14272015 -0.02265041 -0.13383138 -0.1345318 0.057138007
0.046332378 -0.081873335 0.010778468 0.17566787 0.19608162 -0.02620169 0.15481406 0.006996591
-0.13279979 0.050745167 0.008576855 0.040656544 -0.12601927 0.018267788 -0.1230839 0.20365106
-0.13361418 -0.17946671 0.09242517 0.020886917 -0.032794233 0.118820444 0.1717249 0.18895239
0.0012754478 0.004264149 0.1334753 0.21474324 -0.025085252 -0.043096896 -0.0024604232 0.04720045
-0.11446429 0.20311064 -0.005933107 0.09742358 0.19783533 0.10437375 -0.061164442 0.17736772
00000000: d2a2 4bbe ab0b de3d f514 35bd efdd 09be
00000010: 8bb0 483e 621a 4e3e 1c78 4dbb fa6c 39be
00000020: 25ad a5ba 0b65 ca3d c7dc 003d 93f3 51be
00000030: 222c 3c3e daf1 923c e340 54bd 8804 39be
00000040: 91d2 cf3d d525 b93d 5f03 f83d c053 013e
00000050: 1374 473d e8ed 1bbe e2cc 19be 5460 3d3e
00000060: 3c43 be3d 1faf 2ebe 72e3 02be d2db 363e
00000070: 1694 b0bd a789 8c3d c4ff 07bd 356c bf3d
00000080: 56fc 0abd 1c5c 8e3d c90b debd d22b 1f3e
00000090: 083f abbd 4d36 42be 135f 7a3d 55b3 ae3d
000000a0: ff20 d6bd d7e5 82bd 318c 363e b9aa cbbc
000000b0: 87ae 013e 5287 4c3e db5a dc3d 024f 0c3e
000000c0: 181f 0dbe cc6f e8bd db0f 21bd f7d7 29bd
000000d0: b06c 97b8 026e 013e 07c0 4abe 1caa 0f3e
000000e0: f281 483e d760 0f3e d946 213e 6cd2 373e
000000f0: 49c5 d5bc e2a6 54bd e9f8 29be 482f 223e
00000100: cc60 653d d55f 4339 a7d4 d0bd ad30 233d
00000110: 3fee f6bd a296 41be 5918 72bd 10b4 823d
00000120: d216 34be 6fea 3c3e 70d9 673d e3ac cebd
00000130: bb59 5e3c c962 91bd 5cb5 153e 2e7e 26be
00000140: 097c 303e 3707 d5bd 7b9b 343e 496c 0bbe
00000150: f1aa 24be 182f b6bd 8726 3abc 1c7c 9abd
00000160: 7129 3ebe 70f9 31be 4756 423e 20e9 44be
00000170: 1032 093d a7e9 3cbe a4a3 423e c97d 0abe
00000180: a74d 3e3e 1b4c 253e 8a8a 32be 3e12 b1bd
00000190: 2c29 9fbd eaef e93d 5208 05bd 5b4a f63c
000001a0: 0c52 c6bd b151 35bd cc87 193e 124e 26be
000001b0: e0bc 9a3c 227e bd3d 3b83 bebc 9c5c 803d
000001c0: a5d7 b2bd cf17 d0bd 58fb 1d3e 182a 76ba
000001d0: d4fb d93d 94ca 10be 8336 51be 3858 aabd
000001e0: ffa9 4e3e 09eb 223e 82f3 3b3e e322 40be
000001f0: 0e3c 103e 21a9 fabd 9768 193e 99c5 02bd
00000200: e369 4b3e ea70 e1bd 7a74 f7bd 1852 98bd
00000210: ea07 993c 2171 72bc c07b 203e ea06 1e3e
00000220: 21e2 2bbd 32c7 843d 35e4 db3d cf09 ab3d
00000230: 58b6 9a39 e7c8 dabd e1de 173e 2e32 503e
00000240: e567 bebd 4cf0 3b3e a706 9ebb 83c0 0a3d
00000250: 3a13 cfbc fefd ee3b 102f 1c3d 0b7c ccbd
00000260: 94cc 963d 0298 cb3d 8846 293e 3f3a 093e
00000270: a3ff 89bd 9943 43be 8534 2a3d af2c aebc
00000280: 6eb2 3f3e ddcf 3a3e 1c81 2b3e b6cf 4b3e
00000290: fb26 5f3d 763f 183d 4df7 10be 9898 7ebc
000002a0: 0fe9 4b3d e549 50be 8fd6 de3d 542c cd3d
000002b0: 7e2f 31be ac98 163d da87 c43d 226c 373e
000002c0: b050 493d 2a15 bcbd bbb9 013e ae56 1abe
000002d0: d98f d2bd d2b3 193d 2beb d1bd 1b29 e83d
000002e0: a2cf ab3d bb4e a4bd b9a0 46be 02cf 38be
000002f0: b337 163c 827f 0d3c 95ce 9e3c 5fef 31be
00000300: 06cf b53d 3170 26be 6d29 3a3d d334 15bd
00000310: 870c d4bd d749 abbd 23cc 2abd 9c2b 22bd
00000320: e3cc c6bd fdf2 35be 30cd 03be 0837 a63d
00000330: c953 093e 1e71 18be ad35 01be cb11 94bd
00000340: 3b8a 7bbd dd12 f13b 837e 993d 3b25 123e
00000350: 5a8d b9bc 180b 09be b4c2 09be 8b09 6a3d
00000360: 05c7 3d3d 35ad a7bd 2c98 303c 47e2 333e
00000370: 9fc9 483e eda4 d6bc 9487 1e3e a943 e53b
00000380: abfc 07be 2ada 4f3d f085 0c3c 7a87 263d
00000390: 320b 01be 54a6 953c 6913 fcbd e789 503e
000003a0: 28d2 08be 1fc6 37be 6849 bd3d 0a1b ab3c
000003b0: 3f53 06bd 2258 f33d a7d8 2f3e bc7c 413e
000003c0: ed2c a73a 46ba 8b3b c0ad 083e a7e5 5b3e
000003d0: 967f cdbc 5f86 30bd 0d3f 21bb 4255 413d
000003e0: 416c eabd 3cfc 4f3e 826a c2bb 0486 c73d
000003f0: 5895 4a3e e8c1 d53d 9187 7abd e29f 353e

h.0.bias f4 [64]
0.17258395 -0.032907177 -0.06812355 -0.18871416 -0.16695781 0.027931413 0.18203625 -0.047973316
-0.017623547 -0.07874106 0.11033446 -0.05456107 0.12367315 0.08778313 -0.09955547 -0.17249267
0.03512075 0.07466748 -0.11113893 0.17495787 0.0894706 -0.05788584 0.07687755 -0.19698478
0.19955166 0.0851112 0.12165293 -0.076096006 -0.039054733 0.11781862 -0.06901182 -0.1437512
-0.17747651 -0.031370092 0.014818262 -0.05156144 -0.1638862 0.16495188 0.06307507 -0.103801705
-0.058361944 -0.18477076 0.066720285 -0.20801626 -0.062051162 -0.16435029 -0.14805353 -0.069067515
0.10636955 0.19843994 0.13751383 0.026422877 -0.05012755 0.06954534 0.013607546 -0.14613126
-0.15040144 0.03392139 -0.09666982 -0.15667686 0.15253392 -0.0352616 -0.1462108 -0.06377491
00000000: d9b9 303e adc9 06bd 5c84 8bbd 493e 41be
00000010: fdf6 2abe 6bd0 e43c b667 3a3e ab7f 44bd
00000020: 425f 90bc fe42 a1bd 09f7 e13d 6e7b 5fbd
00000030: 5948 fd3d a4c7 b33d bde3 cbbd eba1 30be
00000040: c7da 0f3d 44eb 983d cf9c e3bd 2828 333e
00000050: 5d3c b73d b419 6dbd fa71 9d3d 61b6 49be
00000060: 4557 4c3e c84e ae3d 2c25 f93d 39d8 9bbd
00000070: dbf7 1fbd e34a f13d 1256 8dbd 8433 13be
00000080: 67bc 35be ed7d 00bd 4cc8 723c 1732 53bd
00000090: c9d1 27be 25e9 283e 812d 813d fd95 d4bd
000000a0: ef0c 6fbd 8c34 3dbe a5a4 883d 3702 55be
000000b0: 5c29 7ebd 714b 28be 589b 17be 4573 8dbd
000000c0: 47d8 d93d d733 4b3e 6dd0 0c3e ca74 d83c
000000d0: 8c52 4dbd ca6d 8e3d 2ff2 5e3c 6fa3 15be
000000e0: d602 1abe 28f1 0a3d d4fa c5bd e66f 20be
000000f0: da31 1c3e 786e 10bd 49b8 15be 6c9c 82bd

h.2.weight f4 [64, 64]
0.09683872 -0.10798617 0.10361021 0.024628256 -0.11712566 -0.06480885 0.007204462 0.063300125
-0.03386631 0.07416343 0.04557421 0.06418257 -0.021408413 -0.038284186 -0.10538529 -0.13347393
-0.09044848 -0.073739134 0.009696857 0.07483019 -0.026230762 -0.035445422 -0.044834413 0.10249947
0.07288871 -0.11815525 0.06023416 -0.03593086 -0.08341834 0.039152406 0.06030778 0.11341731
-0.005427159 0.039632525 0.00015428757 0.084577546 -0.09715206 -0.1323933 0.026848067 0.008251672
0.037671693 0.062014505 -0.034545247 -0.10742314 -0.052030187 -0.016146563 -0.09992393 0.012407537
0.06845369 -0.03087165 0.03770392 0.049829155 0.11070195 -0.01176976 -0.028542254 0.002461189
-0.05836323 0.08737231 -0.001395286 -0.114431374 -0.09057601 -0.0630914 0.005576755 -0.024120994
0.05986676 0.08815578 -0.024246426 -0.012220974 0.116581224 -0.030110855 0.06654155 -0.08206633
-0.0026547054 0.065181404 -0.1186498 -0.09329079 -0.03902497 -0.10753572 0.10945247 -0.0036955152
0.042310666 -0.13123809 -0.087787375 -0.048097137 -0.02235506 -0.106054395 0.027730323 0.05193187
-0.12997918 -0.100200035 0.008276054 -0.0048096594 -0.08663997 0.07664922 -0.024018437 0.07164833
-0.092323765 -0.03431189 -0.090582944 -0.01678656 0.08488064 0.03668097 -0.12584521 0.043137394
-0.106985986 -0.07229278 0.06986287 0.077591866 0.069017544 0.013262087 0.003908283 -0.08025534
-0.11643528 -0.052108154 -0.08541036 0.10560225 0.03331801 0.018239737 0.04876119 0.066685095
-0.008730257 0.03244 -0.11828465 0.10592627 0.103804216 0.0740398 0.051608264 0.05510927
0.05250603 0.057564806 0.0028247877 0.020201815 -0.09184625 -0.008950783 0.03728242 -0.10408004
-0.043736 0.0032924195 0.12360665 0.1352507 0.12520929 0.036354534 -0.085926265 -0.07621626
0.039546367 0.032820974 0.059324533 -0.110361315 -0.061544087 -0.071557626 0.11696693 -0.110554844
-0.049482338 0.097251065 -0.008784868 -0.08120465 -0.079016775 0.034135338 0.113795646 0.07532698
0.059998166 -0.04987862 0.035006147 -0.07689452 -0.06434591 -0.05014265 0.07927745 -0.03205475
-0.094451025 0.08728218 -0.0060513658 0.03230065 0.07092437 -0.00064551283 0.053545054 0.09855112
-0.021474537 0.1103726 0.045915127 0.018290717 -0.089455165 0.10986049 0.038028635 0.088615976
0.025111355 0.07785392 0.11224649 0.024245372 0.026779588 -0.10096051 -0.015491427 -0.07357828
0.09658368 0.018861676 -0.10258315 -0.04147327 -0.048705336 0.09404937 0.061754033 0.044931125
0.08396735 -0.083433785 0.04482092 -0.06782635 -0.026025916 -0.044124972 0.03215994 0.116122656
0.10067307 -0.06844605 0.09289215 -0.051032003 -0.024571426 -0.058472726 -0.10877522 -0.04924173
-0.03267734 -0.12308371 0.05383269 -0.023871165 0.024693746 -0.110781014 0.01040413 -0.036523167
-0.09421881 0.006134229 -0.11490549 -0.113591224 -0.0444179 0.10999006 -0.036830254 -0.029560866
0.016000539 0.11557506 0.11785937 -0.04442862 -0.0063863616 -0.12020089 -0.04961327 0.073181406
-0.12987381 -0.105499804 0.042673014 -0.11698438 -0.058687907 -0.10706323 -0.12103909 -0.03783442
0.026579987 -0.06656353 -0.063514024 -0.032343857 -0.055124015 0.104347736 0.01581499 -0.12765014
00000000: 6153 c63d da27 ddbd 9731 d43d 32c1 c93c
00000010: 94df efbd 81ba 84bd 6813 ec3b 7fa3 813d
00000020: 66b7 0abd ffe2 973d 06ac 3a3d 2772 833d
00000030: b260 afbc e1cf 1cbd 3ed4 d7bd 64ad 08be
00000040: 0d3d b9bd 8b04 97bd 91df 1e3c 9240 993d
00000050: e5e1 d6bc 382f 11bd 4aa4 37bd 3eeb d13d
00000060: ad46 953d 61fb f1bd 18b8 763d 3d2c 13bd
00000070: 3cd7 aabd 465e 203d 4a05 773d 5647 e83d
00000080: 4fd6 b1bb b755 223d 41c8 2139 fe36 ad3d
00000090: a9f7 c6bd 1c92 07be 7af0 db3c 0532 073c
000000a0: a24d 1a3d ec02 7e3d 517f 0dbd aa00 dcbd
000000b0: 9b1d 55bd cc45 84bc eba4 ccbd fb48 4b3c
000000c0: 7331 8c3d 8be6 fcbc 6d6f 1a3d a819 4c3d
000000d0: b4b7 e23d f4d5 40bc 72d1 e9bc e64b 213b
000000e0: 480e 6fbd 41f0 b23d 07e2 b6ba ff5a eabd
000000f0: ea7f b9bd 1036 81bd 36bd b63b 6499 c5bc
00000100: d936 753d 058b b43d 71a0 c6bc 7b3a 48bc
00000110: 23c2 ee3d 0aab f6bc f046 883d 6412 a8bd
00000120: 91fa 2dbb d47d 853d abfe f2bd 3e0f bfbd
00000130: a6d8 1fbd b03b dcbd 9e28 e03d 7530 72bb
00000140: f34d 2d3d 4763 06be dec9 b3bd 8101 45bd
00000150: f521 b7bc 0c33 d9bd b42a e33c 83b6 543d
00000160: 4319 05be ad35 cdbd 4998 073c 599a 9dbb
00000170: 4c70 b1bd 44fa 9c3d 50c2 c4bc 5cbc 923d
00000180: 3e14 bdbd a08a 0cbd 8d83 b9bd f883 89bc
00000190: e7d5 ad3d c93e 163d 91dd 00be d6b0 303d
000001a0: 781b dbbd 3d0e 94bd 4414 8f3d 7ce8 9e3d
000001b0: 1259 8d3d 3949 593c 0e11 803b e95c a4bd
000001c0: 9f75 eebd 5c6f 55bd a0eb aebd fe45 d83d
000001d0: 7778 083d 806b 953c d0b9 473d 3292 883d
000001e0: 5a09 0fbc cedf 043d 393f f2bd dfef d83d
000001f0: 4e97 d43d 2ea2 973d 3063 533d 42ba 613d
00000200: 9010 573d 13c9 6b3d 1320 393b 477e a53c
00000210: e319 bcbd 4ea6 12bc 73b5 183d ea27 d5bd
00000220: 8524 33bd a2c5 573b 7c25 fd3d 297f 0a3e
00000230: dd36 003e 7ee8 143d 1cfa afbd 4517 9cbd
00000240: 5ffb 213d 496f 063d 48fe 723d 1d05 e2bd
00000250: a715 7cbd ce8c 92bd 5c8c ef3d 946a e2bd
00000260: fead 4abd 912b c73d 68ee 0fbc a04e a6bd
00000270: 8cd3 a1bd 7fd1 0b3d b10d e93d 0845 9a3d
00000280: a3c0 753d 864d 4cbd 9b62 0f3d e07a 9dbd
00000290: cac7 83bd 6162 4dbd 375c a23d d74b 03bd
000002a0: 8a6f c1bd 00c1 b23d 894a c6bb b04d 043d
000002b0: cc40 913d a237 29ba 0f52 5b3d 2bd5 c93d
000002c0: 5eeb afbc 080b e23d 8011 3c3d 6ad6 953c
000002d0: 4534 b7bd 89fe e03d eac3 1b3d 4b7c b53d
000002e0: 54b6 cd3c e071 9f3d 7de1 e53d 3b9e c63c
000002f0: de60 db3c 62c4 cebd c1cf 7dbc 36b0 96bd
00000300: aacd c53d cd83 9a3c 1d17 d2bd e0df 29bd
00000310: 3f7f 47bd f59c c03d ccf1 7c3d b309 383d
00000320: 13f7 ab3d 55df aabd 2496 373d 8be8 8abd
00000330: 4d34 d5bc 63bc 34bd 24ba 033d b7d1 ed3d
00000340: af2d ce3d 712d 8cbd 3d3e be3d ef06 51bd
00000350: 044a c9bc 1981 6fbd 8bc5 debd b2b1 49bd
00000360: add8 05bd 5013 fcbd ab7f 5c3d 768d c3bc
00000370: 8a4a ca3c 28e1 e2bd 1676 2a3c 5199 15bd
00000380: cbf5 c0bd a401 c93b 9253 ebbd 84a2 e8bd
00000390: 8bef 35bd 7842 e13d 52db 16bd a129 f2bc
000003a0: 9013 833c 9eb2 ec3d 4160 f13d c9fa 35bd
000003b0: af44 d1bb e22b f6bd 4937 4bbd 22e0 953d
000003c0: a4fd 04be 4810 d8bd e6c9 2e3d 8295 efbd
000003d0: bb62 70bd f743 dbbd 58e3 f7bd 44f8 1abd
000003e0: 46be d93c 7652 88bd a413 82bd fe7a 04bd
000003f0: b8c9 61bd 44b4 d53d 708e 813c b8b6 02be

h.2.bias f4 [64]
-0.03596798 0.04316588 0.09899982 0.02435434 0.045865398 0.09724448 0.032023124 -0.059304398
0.117723204 0.09722347 0.06899564 -0.076718695 -0.021873035 0.09564116 0.12381666 0.098104104
0.015736928 0.090557404 0.025205234 0.12846763 0.08618656 -0.014759806 -0.07752798 -0.05977612
-0.086224556 -0.10371692 0.057321686 -0.060562737 -0.09955709 -0.07966622 -0.00974201 -0.020789806
-0.050912917 0.030495405 -0.1012963 0.043281898 0.0071992218 0.07352585 0.0029976384 -0.06391718
-0.047395624 -0.005165654 0.03393118 0.079002485 -0.09496225 -0.096425354 -0.08984635 0.089117855
0.034476496 0.062672175 0.060226116 0.019315735 0.113155425 0.050562438 -0.007928488 0.12179692
-0.106522396 0.025649752 0.101988316 0.050288927 -0.07690206 0.11283601 0.011879927 -0.017983219
00000000: 2953 13bd b5ce 303d 6bc0 ca3d c182 c73c
00000010: 5bdd 3b3d 1d28 c73d ae2a 033d 2be9 72bd
00000020: dd18 f13d 191d c73d 964d 8d3d b11e 9dbd
00000030: 142f b3bc 83df c33d 9793 fd3d ceea c83d
00000040: bbea 803c 2976 b93d 357b ce3c 058d 033e
00000050: 9482 b03d 1dd3 71bc fdc6 9ebd ced7 74bd
00000060: 8096 b0bd 8969 d4bd 25ca 6a3d a210 78bd
00000070: 96e4 cbbd 0b28 a3bd f49c 1fbc 624f aabc
00000080: 108a 50bd 80d1 f93c 6f74 cfbd 5c48 313d
00000090: 73e7 eb3b b994 963d 0774 443b 03e7 82bd
000000a0: ea21 42bd a544 a9bb 6cfb 0a3d 0ecc a13d
000000b0: 917b c2bd a87a c5bd 5d01 b8bd 6c83 b63d
000000c0: 3a37 0d3d 455a 803d a9af 763d 083c 9e3c
000000d0: 08be e73d 8f1a 4f3d 7de6 01bc aa70 f93d
000000e0: 6a28 dabd 6e1f d23c 40df d03d c3fb 4d3d
000000f0: d47e 9dbd 9116 e73d 06a4 423c 8b51 93bc

h.4.weight f4 [1, 64]
-0.026189689 -0.092214935 0.016905958 0.0006794331 0.044150617 -0.05919991 0.014535459 -0.11664706
0.10795563 0.03291087 0.050472505 0.10325372 -0.024065273 0.056889202 0.09362263 -0.05890907
-0.03219216 -0.03429934 -0.045009013 0.110077575 0.10322983 0.004468798 -0.112144716 0.055286016
0.005817622 -0.09374903 -0.01581195 -0.045333788 0.055820026 0.08129381 0.0014940612 -0.11536428
0.09247357 -0.02068218 0.08652565 0.008258147 0.03537421 -0.1045326 -0.09658074 0.028839376
-0.037806552 0.046241842 -0.002193035 -0.08782201 -0.007996452 -0.048848733 0.07703375 0.060831442
-0.01901156 0.09001139 -0.0012432999 0.13684125 0.07120828 0.05805382 0.06315054 0.081439726
-0.097995035 0.13077131 0.090480745 0.026476448 0.032514364 -0.01143902 0.0203051 -0.008374512
00000000: c28b d6bc 2fdb bcbd 5d7e 8a3c fc1b 323a
00000010: 47d7 343d 9b7b 72bd 2226 6e3c a7e4 eebd
00000020: d717 dd3d 8ccd 063d 42bc 4e3d b076 d33d
00000030: 8924 c5bc a704 693d 39bd bf3d a34a 71bd
00000040: eddb 03bd 777d 0cbd 5f5b 38bd 5a70 e13d
00000050: 296a d33d ff6e 923b 21ac e5bd 9773 623d
00000060: c0a1 be3b 7eff bfbd 1088 81bc ecaf 39bd
00000070: 8aa3 643d 5e7d a63d 60d4 c33a 1c44 ecbd
00000080: c862 bd3d ad6d a9bc 5c34 b13d 2e4d 073c
00000090: 8ce4 103d 3015 d6bd 1fcc c5bd 8e40 ec3c
000000a0: 0bdb 1abd 1668 3d3d 06b9 0fbb 07dc b3bd
000000b0: 8d03 03bc 9c15 48bd dfc3 9d3d 642a 793d
000000c0: 22be 9bbc e457 b83d 39f6 a2ba 1d20 0c3e
000000d0: a6d5 913d d8c9 6d3d 1255 813d dfc9 a63d
000000e0: 9fb1 c8bd eae8 053e f84d b93d 23e5 d83c
000000f0: c82d 053d ba6a 3bbc e256 a63c 4035 09bc
